models/mnist_model_20241116_221529_acc89.3.pth (torch, 28880 bytes, 8 tensors)

conv1.weight f4 [4, 1, 3, 3]
000000 29 d7 96 3e cb 94 d3 bd 47 a8 db 3c 4a 2a 52 3e
       0.2946103 -0.103311144 0.02681364 0.20523944
000010 f5 d8 c7 3e b6 09 ef 3e b5 38 d8 3e 2b 0a c0 3e
       0.39032713 0.46687096 0.42230764 0.37507758
000020 76 cf 96 3e 33 7f 8a 3e ab 3c 74 bd a4 ce 18 bd
       0.29455155 0.2705017 -0.05962817 -0.037306443
000030 49 d5 80 3e a6 96 60 3e 44 81 fc 3e a6 3c 01 3f
       0.25162724 0.21932468 0.49317372 0.5048317
000040 22 19 c6 3e df d3 9b 3e 9b 8b 7c 3b b9 fc 04 3f
       0.3869105 0.30435082 0.003853536 0.51948124
000050 1f b8 fd 3e 49 23 d3 be e1 a9 a5 be 57 7a d4 be
       0.49554536 -0.41237858 -0.3235617 -0.41499588
000060 d7 f4 ae 3e 80 73 b7 3e 82 a0 cb 3d 0c 7e af bc
       0.34171173 0.35830307 0.09942724 -0.021422409
000070 0d 19 86 3b fd b5 de 3d 80 c1 93 3e 62 e1 0f 3f
       0.0040923418 0.10874555 0.28858566 0.5620328
000080 d0 95 9a 3e 0f 32 cd 3c d2 8e 2f 3e bc a6 67 3e
       0.30192423 0.025048284 0.17144325 0.22622198

conv1.bias f4 [4]
000000 2a b2 a8 3e 4c c7 56 3e 5d c3 99 3e 0e df f6 3d
       0.32948428 0.20974463 0.30031863 0.12054263

conv2.weight f4 [8, 4, 3, 3]
000000 72 a2 49 3e 89 36 b7 bd 33 d4 4f be b6 30 b8 3a
       0.19690874 -0.08945949 -0.20295791 0.0014052603
000010 ad 6f 29 3e 6f 39 ad bd 19 fd 34 3e 45 12 67 3e
       0.16546507 -0.0845822 0.17674674 0.22565563
000020 b7 44 bf 3d 14 7d 86 3d 23 00 21 be 05 4b 29 bd
       0.09339278 0.065668255 -0.15722708 -0.04133131
000030 1e 77 26 bd 7a 82 29 bc 95 ac b1 3c f9 74 be 3d
       -0.040640943 -0.010346049 0.021688739 0.092996545
000040 25 c0 ec 3d a0 c9 ac 3d 44 17 29 3d bc a5 bb 3c
       0.11560086 0.084368944 0.041281953 0.022906177
000050 b4 cf 8d 3d a6 87 1f 3e 35 ee db 3d 4c 91 2e bd
       0.06924382 0.1557909 0.10738794 -0.042619035
000060 7e a3 13 3e 49 94 27 be 0a ee 27 3e a0 2e d9 3a
       0.14417836 -0.1636516 0.16399398 0.0016569681
000070 0f 59 93 be b8 14 a3 be c2 ac 48 3c 02 4c cd 3c
       -0.28778884 -0.31851745 0.01224822 0.025060657
000080 e1 01 9a be 3f 68 8f 3d 10 32 ff 3d dc 45 b9 3c
       -0.30079558 0.07002305 0.124607205 0.02261632
000090 b3 75 ec 3d 13 1c 86 3d d7 73 17 be d2 5b 35 3e
       0.11545887 0.065483235 -0.14790283 0.17710808
0000a0 2d 33 06 bd b4 74 3c bb a5 62 b9 3d d7 fe e5 3d
       -0.03276365 -0.0028756084 0.09052018 0.112302475
0000b0 c5 9c 12 3d d3 38 4e 3d b4 8f 86 bc 91 8f cd 3d
       0.03579404 0.05034716 -0.016425945 0.10037149
0000c0 98 55 b0 3d 23 16 92 bd 1b 0e e1 bd e3 41 c4 3d
       0.08610076 -0.071331285 -0.109890185 0.095828794
0000d0 a6 72 75 bb ab c0 ea 3d a9 20 6e 3d c2 35 04 3e
       -0.003745237 0.1146253 0.058136616 0.12911132
0000e0 3b 6c 0b be 77 39 01 3e 83 b2 37 bd 33 da 1e 3e
       -0.13615505 0.12619577 -0.044847976 0.15512924
0000f0 42 0c 62 3e 44 1d d2 bd 55 3e 55 be 14 11 4e 3d
       0.22074988 -0.10259488 -0.20824559 0.050309256
000100 d4 0f 79 be 37 54 8c be 6b ef a3 bd b8 28 bf bc
       -0.24322444 -0.27408 -0.0800465 -0.023334846
000110 f6 5d 1b be 84 26 62 3e c9 62 39 3d 0d 32 0b 3e
       -0.15172562 0.22085005 0.045260224 0.13593312
000120 fa 49 90 be 39 fb 09 be dc 30 9a be 2c 6c ea be
       -0.2818144 -0.1347474 -0.30115402 -0.45785654
000130 d1 6e ec bd b4 f9 3c be 52 76 ad 3d 28 26 1d 3e
       -0.11544574 -0.18454629 0.084698334 0.15346587
000140 f3 42 3b 3e 25 4d 9c be 07 dd 1c be 98 a8 b8 be
       0.18287258 -0.30527607 -0.1531869 -0.36066127
000150 ab 5e d5 be 6b 6e 7b bd 4f 21 cd bd d3 ea 7d bd
       -0.41673788 -0.0613846 -0.10016119 -0.061991524
000160 f0 7d 7a 3e 69 c3 7a 3d 36 d8 0b 3f 62 99 0d 3f
       0.24462104 0.061221514 0.54626787 0.5531217
000170 bd 3f cd 3e 04 ee 27 3e b4 e0 29 3e e8 87 d3 bc
       0.4008769 0.1639939 0.16589624 -0.025821641
000180 d8 f8 3f 3e 9a f8 c7 3e a5 3f 9b 3d 8e 5a 09 be
       0.1874727 0.39056855 0.075804986 -0.1341345
000190 8f 6e 46 bd 0c af af be 78 06 11 be ae 86 1b be
       -0.04844528 -0.34313238 -0.14162624 -0.15188095
0001a0 db 83 73 be bc f1 3a bc 74 2e 1b 3e 25 75 19 3c
       -0.23780768 -0.011410173 0.15154439 0.009366308
0001b0 f0 5a 83 3e 2d 9c 64 3e 69 6d cf bd 42 fd 30 3d
       0.25655317 0.22325201 -0.1012829 0.043210275
0001c0 18 f3 0e bd c7 f0 d1 3d de 70 0d 3d 21 a2 b3 3d
       -0.0348998 0.10251003 0.034531467 0.08771158
0001d0 cc d8 b3 3d 91 75 34 3e 80 66 84 3d 5a 2b e9 bd
       0.08781585 0.17622973 0.06464863 -0.11385222
0001e0 a4 d5 9b 3d a1 fd 85 3d 02 5a 09 3d 81 93 d6 3d
       0.07609108 0.065425165 0.033533104 0.10477353
0001f0 1f 5c d1 bd 30 a2 02 be 7f 8c 6d 3e c7 2c 8f 3e
       -0.10222649 -0.12757182 0.23198126 0.2796385
000200 a8 d2 54 3d 63 51 06 be 25 96 86 3d 4b cd 24 be
       0.05195871 -0.13116984 0.065716065 -0.16093938
000210 24 2e 17 3d 85 27 71 be 80 db 38 3d c2 aa f4 3c
       0.036909238 -0.23550232 0.045131207 0.02986658
000220 af b4 1a 3e a9 80 14 3d 53 5a 4f 3d d6 c4 34 bd
       0.15107988 0.036255512 0.05062325 -0.04413303
000230 1b 92 1f be ab 53 30 3e 54 7d 1f bc 09 92 8d bc
       -0.15583079 0.17219417 -0.00973447 -0.017281549
000240 dd 5f af be 10 59 0e 3b e9 5b 9a 3e 4b 8a 27 be
       -0.34252825 0.0021720566 0.30148247 -0.16361348
000250 82 96 73 bd 6a 22 3a 3e d1 b4 ad bc 85 ed 3c 3e
       -0.059469707 0.1817719 -0.021204384 0.18449982
000260 d6 fa 44 3d 61 bc b0 bd 74 ef 15 bd 44 c4 e0 3d
       0.04809078 -0.086296804 -0.036605313 0.10974935
000270 9a bb a1 bd 45 40 f2 3d d9 98 07 3e 7a 0b 9b 3d
       -0.0789711 0.11828665 0.132419 0.07570548
000280 f5 45 1e 3e a4 95 10 3d 73 e0 be bc 54 68 83 bd
       0.15456374 0.03529896 -0.023300385 -0.064163834
000290 dd 83 87 3e 65 cf 96 3d 3e 91 ea 3d f8 b7 89 3e
       0.2646779 0.07363776 0.11453484 0.2689817
0002a0 63 eb 50 3d 8a 13 90 3e 10 fc ac 3e 4f 47 cb be
       0.051005732 0.28139907 0.33786058 -0.39702842
0002b0 cc 3f 3e be f1 14 a3 3e 61 03 2b be e1 80 37 3e
       -0.18579024 0.31851915 -0.16700508 0.17920257
0002c0 a6 be 8e 3e 98 30 ca 3d 4c d3 7a 3d ce e4 c1 3c
       0.27879828 0.0987255 0.061236665 0.023668673
0002d0 ed 35 b2 3d d7 13 36 3e 34 09 4f bc 53 9a 07 3e
       0.08701692 0.17781006 -0.012636472 0.13242464
0002e0 5d 98 c4 bd bf 06 46 3e 07 11 00 3e 49 82 2b 3e
       -0.095993735 0.19338511 0.12506495 0.16748919
0002f0 8d 14 92 3d b8 e6 9e bd 1a cd 2d 3e 20 65 7d 3e
       0.07132826 -0.0775885 0.16972771 0.24745607
000300 81 e1 0f be 77 ac 1a 3d 8b b7 24 3e 03 de 9c bd
       -0.14050867 0.03776213 0.16085641 -0.07659533
000310 dd 26 30 3e f8 43 39 3e 69 cf 19 3e 2d 86 14 3e
       0.17202325 0.18092334 0.15020527 0.14504309
000320 48 ef 0d 3e 54 4e 1c 3e c6 9f 61 3e b6 e2 8d ba
       0.1386081 0.15264255 0.22033605 -0.0010825011
000330 27 f1 5a 3e e0 38 2c 3e b3 5d 43 3d 80 39 15 be
       0.21381055 0.16818571 0.04769678 -0.14572716
000340 99 73 3f 3e b9 96 83 bd f0 76 90 bd f4 73 30 3e
       0.18696441 -0.064252324 -0.070539355 0.17231733
000350 29 64 37 bd eb 82 a0 bd b6 f2 e3 3d 7c 1a c9 3d
       -0.044773255 -0.078374706 0.11130278 0.098195046
000360 ca 22 cd bd 5f 9e 92 be 0b a9 13 be 76 f8 11 3c
       -0.10016401 -0.28636453 -0.14419954 0.008909335
000370 76 c0 3d be 8a ff 6e be d5 53 80 3e 60 7a 4f 3e
       -0.1853045 -0.23339668 0.2506396 0.20261526
000380 2e 6d 7f 3e b8 6b 09 be 39 73 b2 be bc f2 a6 be
       0.24943992 -0.13419998 -0.34853533 -0.32607067
000390 60 1f b5 3d f3 a7 2b be d1 4f a6 bd ef 7b 7a 3e
       0.08843875 -0.16763286 -0.081206925 0.2446134
0003a0 82 99 6f 3e 3d 08 40 bc 05 0d 1c 3e b1 78 96 3e
       0.23398402 -0.011720714 0.15239342 0.29388955
0003b0 04 c6 89 3e 1b 2c c0 3e 6b af bf 3e e5 d2 83 3d
       0.26908886 0.3753365 0.3743852 0.06436709
0003c0 dc 92 1c be e9 2a 0b 3e 20 15 f8 3b 60 e4 06 be
       -0.15290397 0.13590588 0.0075708777 -0.13173056
0003d0 88 b7 5c be df 55 32 be 5d b3 10 be 07 8f 4a be
       -0.21554387 -0.1741557 -0.14130922 -0.19781123
0003e0 40 e3 f8 bd 87 5e ac 3e e8 35 ad 3e 12 df e1 3d
       -0.121527195 0.3366587 0.3383019 0.110288754
0003f0 02 92 81 3e 22 17 6e 3e 52 9a 9e 3e 7b 45 32 3e
       0.25306708 0.23251012 0.30977112 0.17409317

conv2.bias f4 [8]
000000 f0 69 08 bd aa 77 dc 3d 67 ca 8f 3e 1f 5b 48 bd
       -0.033304155 0.107650116 0.28084108 -0.048915025
000010 d7 a5 93 bb 7e 4e 28 bc 67 b7 2c bd 42 45 2f bd
       -0.0045058536 -0.01027262 -0.042167094 -0.04279066

fc1.weight f4 [20, 288]
000000 e3 fc e0 3b 7b 9e 01 3d 2d 1f 16 3d 2d 4f d9 3d
       0.006866084 0.03164528 0.036650825 0.10610805
000010 94 34 76 3c 1d 71 ff bc 73 3c ca bc b8 17 6b 3d
       0.015027184 -0.031181866 -0.024687028 0.057395667
000020 20 98 e8 bb 25 5b ea 3c 17 3c 13 3d b8 7e d7 3b
       -0.007098213 0.028607914 0.035945978 0.0065763853
000030 28 c5 fc bc e6 2e 93 bb af cd 9c 3d 54 de 58 bc
       -0.03085573 -0.0044916747 0.076564185 -0.013236601
000040 dd 15 e1 bc 6f 99 e2 bc 4d dd 18 3a 82 e8 94 3d
       -0.027476246 -0.027661053 0.0005831316 0.0727091
000050 38 76 ee 3b c9 20 c2 bc a3 6a ca bb 0d fe 92 3c
       0.0072772764 -0.023697274 -0.006177263 0.017943406
000060 c5 dd f9 3b 40 ad d9 3b 88 21 1e bd 8e 89 bf bb
       0.007625314 0.0066429675 -0.038606197 -0.005845255
000070 27 56 36 3d 84 db 92 3d b0 ae d4 3c 6e 3b 51 3c
       0.044515755 0.071707755 0.025962204 0.012770517
000080 93 51 29 3d bb 04 88 3c 8b bd de 3c 4d 78 0b 3d
       0.04133756 0.016603818 0.02718999 0.034050275
000090 a0 ec a5 3c ec 9d 40 bd 64 6a 75 bb 44 9a 6c 38
       0.020254433 -0.047025606 -0.0037447447 5.6410456e-05
0000a0 07 6f 15 3d 95 3f cb bb 85 70 b9 3b e7 d5 bb 3c
       0.036482837 -0.006202648 0.0056591653 0.022929145
0000b0 f2 7e a2 bd 22 03 6b bc 66 65 b5 3c cb d9 95 bc
       -0.07934369 -0.014344009 0.022143077 -0.018292328
0000c0 dc f9 d0 bb 87 c6 6d 3d d0 d5 a1 3d 02 ce c1 bc
       -0.006377442 0.05805066 0.079021096 -0.023657802
0000d0 dc 70 ae 3d 9b 4f ca 3c 92 54 04 3d cb f4 bf bb
       0.0851762 0.024696162 0.032307215 -0.005858039
0000e0 1b 7f 7a bc 1b 3e ae bd 6d eb 56 3d 50 5d a7 3b
       -0.015289093 -0.085079394 0.052470613 0.0051075593
0000f0 d5 15 ab 3a d4 c8 b1 bc 45 7a ee bc b5 f5 dd 3b
       0.0013052771 -0.021702208 -0.029111037 0.0067736753
000100 ee fd 4a bd c2 c6 8d 3d 1e 25 93 3d a0 4a dd bb
       -0.049558572 0.06922676 0.07184814 -0.0067532808
000110 f8 84 3d 3d bf f8 7f 3d 31 95 9d 3c 32 1f 84 3d
       0.046269387 0.062493082 0.01923618 0.064512625
000120 d5 95 cb bd 06 45 03 bc 25 ef 95 3d 99 c4 9a 3d
       -0.099406876 -0.008012062 0.07321004 0.07557029
000130 03 41 1c 3c 3e 79 a7 3c ad 0f 1c 3d f7 0f 7d 3d
       0.009536984 0.020443555 0.038100887 0.061782803
000140 9d be a3 3d d2 2a 9e bd 4d c9 fe bd 3c 23 6b bd
       0.07995341 -0.07723011 -0.12440739 -0.05740665
000150 cb 53 a9 bd 14 7c 24 be f3 0d 1d bd 73 46 de bd
       -0.08267935 -0.16062957 -0.03834338 -0.10853281
000160 3d 16 a3 bd 25 a2 8f bd c8 2f 4d bd 85 45 9d bd
       -0.07963226 -0.070133485 -0.050094396 -0.076792754
000170 fb aa 32 3e b6 c5 10 3d 3e 16 ef bc ad 0d aa bd
       0.17448036 0.0353448 -0.02918541 -0.0830339
000180 58 18 52 3d b8 67 1c 3d 1b ff 24 3e c1 48 e9 3b
       0.051292747 0.03818485 0.1611294 0.0071192686
000190 37 2f 2c be a7 9c 55 be 13 f6 48 bd 87 fb 02 bc
       -0.16814886 -0.2086054 -0.0490628 -0.007994539
0001a0 8e 87 2e bd 9a 55 ac bd 43 83 e9 bd fa 7a fb bd
       -0.042609744 -0.08414765 -0.11401989 -0.12279315
0001b0 08 2c a2 bb 03 12 d0 3b 5e 40 fc 3b 56 af 55 bb
       -0.0049490966 0.0063498034 0.007698103 -0.003260573
0001c0 c8 10 2f bd 7c 97 28 bd 6f 9e 6f 3b 65 91 fc 3c
       -0.042740613 -0.04116009 0.003656294 0.030831048
0001d0 f0 28 e1 3b c9 c5 55 bd 11 f0 93 3c ee 81 6f 3d
       0.006871335 -0.052190576 0.018058809 0.05847352
0001e0 0a 38 b7 3c b4 2d 4e 3d 0b 65 8f 3d b3 6a cb 3d
       0.022365589 0.050336555 0.07001694 0.09932461
0001f0 61 07 f7 3c f6 64 28 bd 43 8b 31 3d e1 f9 7c 3c
       0.030154886 -0.04111191 0.0433457 0.015440435
000200 94 df cb ba 27 34 6c bd 75 03 42 3d 0e 22 6f 3d
       -0.0015554302 -0.057666924 0.047366578 0.058382086
000210 c3 ad af bc 97 0e 3f 3d 89 33 59 bc b7 74 9b bd
       -0.02144516 0.046644773 -0.013256916 -0.07590621
000220 87 ea 82 3c 1a 43 28 3d 7a 2f c4 3a 4f ca a6 3c
       0.015980972 0.041079618 0.0014967762 0.02036014
000230 f9 b5 d8 3c cb 41 77 3d fc 32 65 3d 8d 2c ae 3d
       0.026453959 0.06036548 0.055956826 0.08504591
000240 3b 48 45 bd c2 f2 43 bd 61 23 d4 3c b4 ed 95 3d
       -0.048164587 -0.047838934 0.025895776 0.07320729
000250 8b 35 78 3c df 09 19 3d 58 af 2f 3d f2 9c 51 3c
       0.015149484 0.03736293 0.04289183 0.012793766
000260 29 bd 50 3d 0f b9 c9 3d 2c c5 55 bc 95 d0 62 3d
       0.050961647 0.0984975 -0.013047498 0.0553747
000270 6f a2 10 3d 1a 8c 2f 3d 3a 87 63 bb 26 85 6e bc
       0.03531116 0.04285822 -0.0034718052 -0.014558112
000280 4e 91 c6 bc 3d 3b 19 3d 8b 60 07 bb 1c 50 94 bc
       -0.024239209 0.03741001 -0.002065691 -0.018104605
000290 12 29 ce 3b 50 d3 76 bd d3 b1 48 bd cf 2f a2 3c
       0.006291517 -0.060260117 -0.04899771 0.019798188
0002a0 b1 f1 00 3d a4 9f 26 3c 1e 58 62 bd 6d 8f b1 3c
       0.031480495 0.010169897 -0.055259816 0.021674836
0002b0 1f 29 47 3d 32 e7 a7 3c 03 b9 90 3c 17 0f c0 3a
       0.0486232 0.020495985 0.017666345 0.0014652935
0002c0 d1 3d 6a 3d a1 7b 45 3d 8a 33 80 3c fc fe 47 3d
       0.05718786 0.048213605 0.015649576 0.048827156
0002d0 4b 4c 32 3c af 81 fd ba f4 31 6b 3b db d5 81 3a
       0.0108824475 -0.0019341017 0.0035887929 0.0009905653
0002e0 e4 d8 ab 3c 21 42 d8 3b 54 d1 54 3d 5f 2e 13 bd
       0.020977445 0.00659968 0.051957443 -0.035932895
0002f0 93 20 40 bd 17 0d ce bc ef 4b cf 3c 47 43 c8 bc
       -0.046906065 -0.025152726 0.025304763 -0.024446143
000300 7b 0d 6d 3d d1 8e 43 bc 96 e8 40 bc a4 20 27 3d
       0.057874184 -0.011935906 -0.011774203 0.040802613
000310 4d 7d d1 bc 01 1b 28 bd 1b f2 2d 3d 32 c8 09 3c
       -0.025572443 -0.041041378 0.042467218 0.008409547
000320 82 06 9b 3c ee 8e 3c bc 48 53 41 3c 84 b0 1b 3d
       0.018924002 -0.0115086865 0.011799641 0.038010135
000330 56 8a 64 3d 9d ee 0e 3d fe 4e 65 bd 51 fa 02 bb
       0.05579599 0.034895528 -0.055983536 -0.0019985626
000340 3f 93 1d bd 0a 65 ab 3d 8d 88 90 bc 45 5b 82 3d
       -0.038470503 0.08368881 -0.017643237 0.063650645
000350 7a 27 1d 3d 77 2c 88 3d 3e 98 2d 3c 78 2e 7f 3c
       0.038367726 0.06649106 0.010595379 0.015575044
000360 0e 63 a2 bc b3 f1 82 3d 5f a0 d2 3d dd 7f e2 3d
       -0.019822624 0.06393757 0.102844946 0.11059544
000370 f8 71 c9 3d d8 80 2a 3c c8 cf 50 bd cd 7a 0a bd
       0.09836191 0.010406695 -0.050979406 -0.03380852
000380 75 a6 2e 3d f9 4b 9f bc 8e 75 fd ba 00 9e a2 bc
       0.042639215 -0.019445406 -0.0019337402 -0.01985073
000390 63 84 f4 bd 56 50 2e bd 10 c7 0f 3e 35 41 27 bc
       -0.11939313 -0.042557083 0.1404078 -0.010208418
0003a0 59 60 38 bd 82 e3 ae bd 67 c8 9a 3d 68 3d 03 3e
       -0.04501376 -0.085394874 0.07557755 0.12816393
0003b0 88 2f 1d 3e 80 e1 19 3d 8b da 97 3c 47 e3 1d bd
       0.15350163 0.03756857 0.018536827 -0.038546827
0003c0 33 8a b6 3d 06 bc 12 3e b7 8c 8e 3d d3 5f 7e 3d
       0.08913078 0.14329538 0.06960433 0.062103104
0003d0 26 50 d2 bd 44 3e db bd 06 76 35 3d 1e b1 b9 3d
       -0.10269193 -0.107052356 0.04430201 0.090669855
0003e0 f2 f0 2c 3d 09 79 3e bc d5 55 e1 bd a1 7a a4 bc
       0.04222197 -0.011625537 -0.11002699 -0.020078005
0003f0 31 55 e3 bc 08 db 98 3b 65 51 ba 3c 3d 61 96 bc
       -0.027750583 0.0046647824 0.02274389 -0.018356914

fc1.bias f4 [20]
000000 fa 6c a5 3c fe 03 85 bd 9b af ba bd dc 0b c0 bc
       0.020193566 -0.06494902 -0.09115525 -0.023443155
000010 27 d3 9c 3c 15 5d 60 3d 59 80 32 3c fc a9 45 ba
       0.019143654 0.05477627 0.010894858 -0.0007540283
000020 e7 6f 00 3d 68 cd 36 bd 76 bc 0c 3d 9f 09 00 bd
       0.03135672 -0.044629484 0.034359418 -0.031259175
000030 a4 07 49 bd 1a 5a 21 3c b8 fd 81 bc dd 6f 86 bd
       -0.049079552 0.009848142 -0.015868053 -0.06564305
000040 c9 fb 1d bc a9 63 a3 bc 6b a6 a4 3b 2b 3e ad 3b
       -0.00964255 -0.019944983 0.0050247214 0.005286952

fc2.weight f4 [10, 20]
000000 af 1d 9f 3b e7 43 14 be 09 f7 08 be 38 57 86 be
       0.0048558335 -0.14479028 -0.13375486 -0.26238418
000010 ed 8e b1 3e 16 fe 94 bd fc b5 26 3e d3 c8 3d 3c
       0.34679356 -0.072750255 0.16280359 0.011583525
000020 c6 b0 f7 bc 47 40 fb 3d 8a bc 3f bd cf 2b 5d be
       -0.03023566 0.12268119 -0.046810664 -0.21598743
000030 5b fd 00 bd 2e 84 49 3e 50 5c 75 3e 0e 85 b2 bd
       -0.03149162 0.19679329 0.23960996 -0.087167844
000040 b3 3d 26 3e f2 c7 cb 3d aa 7b 09 be 32 b9 58 be
       0.16234474 0.09950246 -0.1342608 -0.21164396
000050 67 30 8a be 00 15 f0 bd 2b 2c 2b be cb 1c 75 3e
       -0.26990053 -0.117227554 -0.16716067 0.23936765
000060 6d d0 a8 3d 94 42 69 3e d1 95 95 3e 0a 83 6c bd
       0.08242879 0.22779304 0.29215863 -0.057742156
000070 59 c8 ab 3d 1e 01 47 be fc 62 3e 3e dc 71 18 be
       0.08387823 -0.1943402 0.18592447 -0.14887184
000080 b6 33 8b 3d 90 29 63 be 69 fb 82 bd 7d 28 4c bd
       0.067969725 -0.22183824 -0.06395609 -0.0498433
000090 32 c0 2c be 5a a2 6a be 87 17 9c 3e e9 0b 65 3e
       -0.16870192 -0.22913495 0.304867 0.22367825
0000a0 de e8 56 be ff d5 2f 3e 66 a3 45 be 61 c5 3f 3e
       -0.2098727 0.17171477 -0.19300613 0.18727638
0000b0 3c 8a 4a 3e 62 07 9f bc 86 0b ae bd 59 c1 20 3e
       0.19779295 -0.0194127 -0.08498292 0.15698756
0000c0 ee 19 96 be 69 9a c3 3d e5 ec eb bc ab c0 8f be
       -0.29316658 0.09550936 -0.028799484 -0.28076681
0000d0 60 fb ca bd 41 81 13 3e 17 a0 64 3e b1 2c 69 be
       -0.09911227 0.14404775 0.22326694 -0.22770955
0000e0 88 d0 2d 3e 91 63 a4 bc 0a fc 93 3e 5d f1 6f 3d
       0.1697408 -0.020067008 0.28903228 0.05857979
0000f0 64 04 39 3e 76 71 6f 3d c3 3e fa 3d 1e c1 fb 3c
       0.18068081 0.058457814 0.12219002 0.030731734
000100 32 a9 99 3d 2a 93 74 be 3b 9d 4b be e7 12 41 be
       0.075029746 -0.23884264 -0.19884197 -0.18854867
000110 07 b0 c3 bd 39 b6 81 3d f0 e9 dd 3b 59 39 46 3e
       -0.09555059 0.06333584 0.0067722723 0.19357814
000120 38 bc 59 bc f9 5d 8b be 16 e7 69 3e 6d 39 6d bd
       -0.013289504 -0.27220133 0.22842059 -0.057916094
000130 82 f7 89 bd 7f e4 9d bd 49 50 75 3e 9b bc d8 bd
       -0.067366615 -0.07709598 0.23956408 -0.10582849
000140 b5 43 f9 3d b6 82 c0 3d e1 f7 00 3e 4b 6e 9e be
       0.12171117 0.09399931 0.12594558 -0.30943522
000150 d4 b3 25 be 74 f8 36 3e 50 df 6d be 68 b1 1a 3e
       -0.1618188 0.17868215 -0.23229718 0.15106738
000160 49 37 47 be d6 c2 97 3d 86 4f 8b be 44 cf 1f 38
       -0.19454683 0.07410209 -0.2720911 3.8101585e-05
000170 34 6c ec 3c 70 10 d6 3d 27 09 90 be 28 9d fe bd
       0.028860189 0.10452354 -0.28131983 -0.12432319
000180 b3 83 2a 3e 29 bb c8 3d fd 46 ee bd 92 f2 b5 3e
       0.16651802 0.09801323 -0.11634634 0.3553663
000190 24 6d a1 3c d0 d2 86 3d f4 66 40 be 06 ee d3 3d
       0.019705363 0.06583178 -0.18789274 0.10348134
0001a0 9c 8b 3a 3d a8 b2 1f be c0 3c 1b 3e 6c 8f fd 3d
       0.045543298 -0.15595496 0.15159893 0.12380871
0001b0 ee ca cd bd 1c d5 1e bd 3c 66 06 be 26 2d 8c 3e
       -0.100484714 -0.038777456 -0.13124937 0.27378196
0001c0 81 0f 00 3e cc 8a 09 3e c1 bc 2e be 33 fd e1 3d
       0.12505914 0.13431853 -0.17064191 0.11034622
0001d0 15 b5 e8 bd 0a 50 27 be 33 5e 8c be 88 9c 80 be
       -0.11362664 -0.16339126 -0.27415618 -0.25119424
0001e0 c3 54 1b be 5b 22 97 bd 6f 69 1f be 5b ae 26 be
       -0.15169053 -0.073796 -0.15567563 -0.16277449
0001f0 fb 16 24 be d6 ff 0a be 77 c4 f1 3d 20 28 8a 3e
       -0.16024391 -0.13574156 0.11805051 0.26983738
000200 6d 45 e5 ba f9 64 50 3e ff 88 ae 3d 9e 6b 43 be
       -0.0017492004 0.20351018 0.08522224 -0.19084021
000210 88 2b 62 be 22 55 43 bc 2c 2d 17 be f4 bd 27 be
       -0.22086918 -0.011922153 -0.14763325 -0.16381055
000220 1f 20 a7 3c 60 d5 91 bd 1d 63 d3 be 89 22 0b be
       0.020401059 -0.07120776 -0.41286555 -0.13587393
000230 a4 ba 2f be b1 82 53 be 6a 90 ce bb 1a f0 d4 bc
       -0.17161041 -0.20655324 -0.0063038366 -0.025993396
000240 09 17 91 3e 1d 3e 88 3e 0c e3 70 bc 0e e7 6d be
       0.28337887 0.2660989 -0.01470257 -0.23232672
000250 19 a5 be be a6 e3 fc 3d 55 60 41 3e 09 66 e1 3d
       -0.37235335 0.12348108 0.18884404 0.1100579
000260 b7 19 26 bd ed 21 ab 3d 78 91 f6 3d 81 1c d7 bd
       -0.040551867 0.0835608 0.12039465 -0.105034836
000270 d8 07 c0 bd 39 29 00 be 7f 68 3c 3e 71 e3 45 be
       -0.09376496 -0.12515725 0.18399237 -0.19325043
000280 14 c9 77 3d b7 35 20 3d a0 a0 85 3e 78 77 11 3e
       0.060494497 0.039113726 0.2609911 0.1420573
000290 77 9c 7d be da ae 47 be 57 b4 24 3c 29 00 91 bd
       -0.24766718 -0.19500294 0.010052762 -0.07080109
0002a0 96 2c 65 bd dc ef 9f 3d 78 9a 12 3e 56 9c 1a be
       -0.055950724 0.078094214 0.14316738 -0.150987
0002b0 79 ea 3a be a4 eb 87 3e c6 95 81 3b c3 1c fb 3d
       -0.18253507 0.26546967 0.003954622 0.12261345
0002c0 8e bb ca 3d 62 ec 52 be 27 66 cc bd d7 e2 27 be
       0.098990545 -0.20597985 -0.099804215 -0.16395126
0002d0 05 76 36 3e 84 b9 5d be d3 f1 f2 3d d8 c8 8d be
       0.17818458 -0.216528 0.118625306 -0.27692294
0002e0 a7 ba 3b 3d ea 82 67 3d 19 06 8c be 32 95 b8 3d
       0.045832302 0.056521334 -0.27348402 0.09012832
0002f0 6a 4f 52 be 44 97 6a be 77 e0 53 bc 81 cd b2 3d
       -0.20538107 -0.22909266 -0.012931935 0.08730603
000300 70 be 14 be f3 8a 63 3e 31 04 4b 3d 2e b0 56 be
       -0.14525771 0.22220974 0.049564544 -0.20965645
000310 4b 55 02 be 8c b5 43 3e 5d d3 ba 3d 53 ef e1 bd
       -0.12727849 0.19112223 0.091223456 -0.110319756

fc2.bias f4 [10]
000000 3b 7e 02 3e b9 4b 90 bc 3f cf 99 bd a2 09 25 be
       0.12743466 -0.017614232 -0.07510232 -0.16116956
000010 7c 08 ad bd bc 2c 4b 3e 13 ba cb 3c d0 36 5c 3d
       -0.08448884 0.19841284 0.024869 0.05376321
000020 33 27 08 be e2 36 00 3e
       -0.13296203 0.12520936
