models/mnist_model_20241116_221049.pth (torch, 28656 bytes, 8 tensors)

conv1.weight f4 [4, 1, 3, 3]
000000 bf 94 39 be ed 91 cc 3e 57 ff 8e 3d 6d 02 c9 3e
       -0.18123148 0.39955083 0.06982296 0.39259663
000010 84 f2 4a be 00 cc f7 bc 52 34 9a 3e 73 2c 02 3e
       -0.19819075 -0.030248642 0.30118042 0.12712269
000020 d4 39 d6 3e a6 03 98 3e 01 8e 80 3e 98 00 cd 3e
       0.41840994 0.29690284 0.2510834 0.40039515
000030 4a 13 eb 3e 58 6d f9 3d f3 d0 50 be ec 85 99 3e
       0.45913154 0.12179059 -0.20392208 0.29984987
000040 5e ed b6 3d 13 31 df be e1 3e 8e be 31 5e f5 be
       0.08931993 -0.43592128 -0.27782348 -0.47923425
000050 ab c8 45 bf 58 b6 c4 bd 37 79 10 3e ae ec aa 3d
       -0.7725932 -0.09605092 0.1410874 0.08345924
000060 15 df 49 3e 44 ea 09 3f a5 09 b2 3e 85 e5 cd bd
       0.19714005 0.53873086 0.34772983 -0.10053543
000070 c0 51 8a 3c 6d f4 22 3e 40 e6 ec 3e ec 8c 8c 3e
       0.016884685 0.15913554 0.46269417 0.27451265
000080 f4 de 9e 3e 9c a9 b8 3e 48 6b 27 3c fb dc ab 3e
       0.31029475 0.36066902 0.010218449 0.33567032

conv1.bias f4 [4]
000000 79 e7 1d be 9d 2f 0c 3f 0d e2 0f bd 09 c6 36 3e
       -0.15420331 0.5476015 -0.03512769 0.17848982

conv2.weight f4 [8, 4, 3, 3]
000000 60 84 b0 bd 2d 21 a0 3d 81 4b 01 3e b8 f7 08 3e
       -0.086189985 0.07818828 0.12626459 0.13375747
000010 9a ff 34 be 81 63 4a bd 7f da e6 3d 71 0b 9b ba
       -0.1767563 -0.0494113 0.112721436 -0.0011828971
000020 29 b0 5a be 4f 1f 3a 3d c4 e3 27 3e e6 0b 8f bd
       -0.21356262 0.045440014 0.1639548 -0.06984691
000030 66 cf 29 3e ae 38 11 3e 71 3a 5b 3e 0b 72 55 bc
       0.16583022 0.14181778 0.21409012 -0.013027678
000040 79 de f6 3d 14 32 27 bd c4 39 1f 3e 4a 07 ee 3d
       0.12054152 -0.040819243 0.1554938 0.11622484
000050 fd ed 89 3e f2 44 2a 3e 9b 71 89 bd 92 5e b3 be
       0.26939383 0.16627863 -0.06711122 -0.3503309
000060 9d c0 0d bc 10 21 90 be bf 74 b5 be 90 91 3a 3e
       -0.00865188 -0.28150225 -0.35440633 0.1821959
000070 14 b4 fa 3d 13 5a 52 3e b9 d2 32 3e 23 75 dc 3c
       0.122413784 0.20542173 0.17463197 0.026911324
000080 2e 3b 47 bd 5b c3 8c bd d3 9e 92 bd 9e 84 a3 be
       -0.048640423 -0.068731986 -0.071591996 -0.31937116
000090 ce 0b f0 39 e2 00 86 3d b2 4c a2 3d b5 e0 9d 3e
       0.00045785162 0.06543137 0.07924785 0.308355
0000a0 94 06 12 3e d7 ef 33 3d d4 d7 4e 3e 4d a7 81 3e
       0.14260322 0.0439299 0.2019952 0.25322953
0000b0 7d ba 81 3e 82 13 81 3e 7c c4 18 bd 85 5c c0 be
       0.25337592 0.25210196 -0.037296757 -0.37570587
0000c0 c0 d1 6a 3d 3f 05 70 bd 38 ef 8f be f5 2f a3 3e
       0.05732894 -0.058598753 -0.28112197 0.31872526
0000d0 93 84 37 3d 2b 96 a7 bb 84 d6 23 bc 1a f6 8c 3d
       0.044804167 -0.005114337 -0.009999875 0.06882878
0000e0 55 c2 1d bd 97 b1 14 3e 8c 0a 8c 3e e7 f6 c1 3e
       -0.038515408 0.1452087 0.27351797 0.37883684
0000f0 63 47 e0 3c 9c a0 f7 3c df ac 9d 3e 0c 8b 3e bc
       0.02737779 0.030227952 0.30795953 -0.011629831
000100 07 90 d9 bd 0e f2 68 3d 48 69 1b 3d c7 32 19 3d
       -0.10623174 0.056871466 0.0379422 0.03740194
000110 b6 67 b5 3d 21 bd 78 3e f4 e7 a4 3d 71 95 98 3e
       0.08857672 0.24290897 0.08052054 0.29801515
000120 4f c5 1d 3e c9 4c 24 3e 76 79 f9 3d a1 bf ba 3d
       0.15407299 0.16044916 0.1218137 0.091185816
000130 7c f0 20 3d 97 f9 54 3e c7 f8 80 bd a7 3c 4c 3c
       0.039291844 0.20798336 -0.062974505 0.0124656325
000140 a1 da a2 3d 96 f4 2a 3e ed de fa 3c 0a f4 15 be
       0.079518564 0.16694865 0.030623877 -0.14643875
000150 86 bc ff bb c1 05 1d bd 1d 0a 85 3d 05 26 b6 3d
       -0.007804456 -0.038335565 0.064960696 0.088939704
000160 f6 a6 8e 3c 82 f0 4e 3a 58 07 0c 3e 55 6b 57 3e
       0.017413598 0.0007894115 0.13674676 0.21037038
000170 74 8d c8 3e ca c1 97 bd 25 0e 51 be 3a c6 13 3d
       0.3917042 -0.07410009 -0.20415552 0.036077715
000180 3f c3 68 be 15 10 56 be 59 e3 58 be 34 e6 f2 3d
       -0.2273073 -0.20904572 -0.21180476 0.11860314
000190 4a c7 ee 3c df d7 64 3e cc 13 23 3d 4a 10 12 3e
       0.029147763 0.22347973 0.0398138 0.14264026
0001a0 08 01 46 3c d5 be 01 be ba c8 fe bd 8d ab 0e 3e
       0.012085207 -0.12670453 -0.12440629 0.13932629
0001b0 eb f4 30 bc 38 ab 09 3d a9 49 48 3e cf 46 78 bd
       -0.0108005805 0.033610553 0.19559349 -0.060614403
0001c0 a0 d8 71 3e 74 3b 8c 3d 7b ba c4 3d 74 9e 86 3e
       0.23617792 0.06847277 0.09605881 0.26292765
0001d0 19 7b aa 3e 95 90 6e bd 47 48 65 3e 06 6f 8b 3e
       0.3329704 -0.058243353 0.22390853 0.27233142
0001e0 9e fa 84 bd e2 7f 22 3e a1 e8 fb bd 21 d9 0b be
       -0.06493114 0.15869096 -0.1230023 -0.13657047
0001f0 f8 0c aa 3c 4a 1d 9d 3d 52 50 92 be 3f b3 02 bf
       0.020758137 0.07671602 -0.28576905 -0.5105476
000200 d7 b2 90 be 6c 35 48 be b0 c6 89 be 95 af 34 be
       -0.28261444 -0.19551629 -0.269094 -0.17645104
000210 f0 ef 79 be 49 a0 b1 bd f0 c4 05 3e 4f 94 b1 3d
       -0.24407935 -0.0867315 0.13063407 0.08670866
000220 7a 8d 2d 3e ed ff 48 be c0 17 4a 3e 71 e3 01 bc
       0.169485 -0.19628878 0.19735622 -0.007927761
000230 2d 78 92 3d e2 ce 92 3d 87 79 60 3e 90 65 32 3e
       0.07151828 0.07168366 0.21921359 0.17421556
000240 09 b8 dc 3c 5f b1 28 bd d5 8b 11 3d 7a 48 3a 3e
       0.026943224 -0.04118478 0.035533745 0.1819171
000250 7d e2 ac 3d 36 7b 21 be 75 5a 83 3e a1 ef e8 bd
       0.08441637 -0.15769657 0.2565495 -0.113738306
000260 0d 23 16 be bc 3d 8c 3e fc 2f 24 3e c7 56 8d 3c
       -0.14661808 0.2739085 0.1603393 0.017253293
000270 6c 2f 4e 3e 2c f0 39 3e 6d 79 bc bd 4d ea 59 3e
       0.20135278 0.18158025 -0.09202848 0.21280785
000280 cc 02 67 bd bb 91 08 3e 6f 3b 11 be 46 12 4b be
       -0.05639915 0.13336842 -0.14182828 -0.1983119
000290 49 0c 09 3e 2a f3 44 be d9 55 96 3c 23 44 94 3e
       0.13383593 -0.19233385 0.018351482 0.28958234
0002a0 0b 54 11 be 6e d1 10 be f2 32 98 bd 5b 89 b8 3d
       -0.14192216 -0.14142391 -0.07431592 0.090105735
0002b0 24 0f 70 3c 92 4a 56 be ca b1 e4 3d a2 22 93 3d
       0.014652047 -0.20926884 0.11166723 0.0718434
0002c0 41 be a9 bd af 1b a3 bc e0 a0 55 3e 94 d9 73 3c
       -0.08288241 -0.019910662 0.2086215 0.014883418
0002d0 0a 0d 70 be 5e ae 84 3d a5 24 fa 3c d4 25 85 bd
       -0.23442474 0.064785704 0.030535052 -0.06501356
0002e0 ca 03 34 3e 37 88 4b 3e a3 21 8b 3e 90 3d 91 3e
       0.1757957 0.1987618 0.271741 0.2836728
0002f0 a1 82 f7 3d 14 2d c0 be 45 41 c0 bd fb ae 93 be
       0.12085462 -0.37534392 -0.09387449 -0.28844437
000300 a8 16 3a be 9c 45 8b be b6 e8 ec bd 8a 5c cc 3c
       -0.18172705 -0.27201545 -0.115678236 0.02494647
000310 6b 96 73 bd f3 30 6f 3c 07 df 2b 3e 55 b8 53 3d
       -0.05946962 0.014599073 0.16784297 0.051689465
000320 e3 82 28 3e 12 2d f1 3e 9c ff f7 3d fe 77 d9 3e
       0.1645618 0.47104698 0.121093005 0.4247436
000330 86 fb bf 3e cb 28 13 3e 06 31 93 3e eb 73 67 be
       0.37496585 0.1437103 0.2874834 -0.22602813
000340 ef fe b8 bd 0d 98 34 be b4 6c e9 bd 81 af ad 3d
       -0.09033 -0.17636128 -0.113976866 0.0848074
000350 a4 5e 78 3e 16 98 49 3e fd 3a 03 3d e1 31 85 3e
       0.24254853 0.19686922 0.032038677 0.26014617
000360 0a 2d bf 3d 35 07 10 3e 81 3c 3b 3e fa df 9c bd
       0.093347624 0.1406525 0.18284799 -0.07659908
000370 71 0e 2c 3e b1 7b 93 3e 3b 10 59 3e 1e 77 98 3e
       0.16802384 0.28805307 0.21197598 0.2977838
000380 17 9f 09 3e 3b 7d c0 be 92 bb e9 3d 9c ac 98 3e
       0.13439594 -0.37595543 0.11412729 0.2981919
000390 b3 bc d1 be 79 08 b6 3d 62 75 70 3d 9d 42 3e be
       -0.4096428 0.08888335 0.058705695 -0.18580098
0003a0 41 0c d8 bd cd c0 62 3e 20 ac 8b be b9 4b 08 bf
       -0.10549212 0.2214386 -0.27279758 -0.53240544
0003b0 da 3e d4 be 95 a2 ac be 88 4c b4 be f1 27 91 be
       -0.41454202 -0.3371779 -0.3521464 -0.28350785
0003c0 65 c5 92 be 4a 3a a7 bd a5 24 19 bd 0d 4f a6 bd
       -0.28666225 -0.08165415 -0.037388463 -0.081205465
0003d0 55 cf 30 3e 97 f7 00 3e ae 3a 8f bd 12 af dc 3d
       0.17266591 0.12594448 -0.06993614 0.107755795
0003e0 5b 86 1e 3e d2 9b 53 3e ab a4 0e 3e 51 01 a7 3e
       0.1548094 0.2066491 0.13930003 0.32618192
0003f0 2a 84 4c bc 4a d8 f5 bd 2d b0 c9 3d c8 fd 43 bd
       -0.012482682 -0.120041445 0.09848056 -0.047849447

conv2.bias f4 [8]
000000 c9 78 5b 3d bb 8b 97 bd 10 cc 6d 3b 5a 2c 7b bc
       0.053581987 -0.07399698 0.003628496 -0.015330398
000010 d6 9b 85 3d 71 7d 87 3d 5a 73 e5 bc da 79 16 3e
       0.06523864 0.06615723 -0.028009105 0.1469492

fc1.weight f4 [20, 288]
000000 62 fd 3d bc 66 7d fb 3c 10 70 6e bd bf d2 64 3c
       -0.011596056 0.030699443 -0.05821234 0.013966261
000010 18 b8 10 bc a7 69 f4 bc 36 05 84 3c 1b 21 3e bd
       -0.008832954 -0.029835535 0.016115766 -0.04641829
000020 5e 7a 3c bc 96 0c c1 3c 28 2b 09 3d 43 ff 4f 3d
       -0.011503784 0.023565572 0.033488423 0.050780546
000030 48 86 1f 3d 61 28 c0 3c c0 93 06 bd fb 9b 14 bc
       0.03894642 0.023456754 -0.03285575 -0.009070392
000040 f3 29 c0 bc 26 90 e3 3c c7 54 13 3d ff b9 7e 3a
       -0.023457503 0.027778696 0.03596952 0.00097170466
000050 32 29 25 bd fc 8b a9 3c ab 02 52 bd 0b 58 74 bd
       -0.04032249 0.020696633 -0.051272076 -0.059654277
000060 61 32 57 3d ee 9e aa bc 54 c8 15 bd 0f 68 67 bc
       0.05253828 -0.020827737 -0.036568 -0.014123931
000070 18 73 10 3d 4f 02 94 3b 68 67 4d bd 84 13 dc bc
       0.035266012 0.004516877 -0.050147444 -0.026864775
000080 80 32 cf bc 68 0b 84 bb 91 15 4e bd 06 ec 9e 3c
       -0.025292635 -0.00402968 -0.050313536 0.019399654
000090 0c a2 24 bd 10 6c 23 bc 38 77 1e bd c7 60 93 bc
       -0.040193602 -0.009974495 -0.038687915 -0.017990483
0000a0 10 04 18 3d 32 61 43 bb 98 a7 ea 3c a6 43 52 bc
       0.03711325 -0.0029812572 0.028644368 -0.012833511
0000b0 95 d8 22 3d cb db 00 3d a3 0e 09 bd 43 18 46 3d
       0.03975733 0.03145961 -0.033461224 0.04836298
0000c0 d6 64 07 3d e2 f4 41 bc 1d 1c 14 3b 2d 49 3c bd
       0.03305515 -0.01183817 0.0022599765 -0.045968223
0000d0 1b 48 bb bc 37 b4 56 bb 3f 3c 1e 3d 3c 84 6a 3c
       -0.022861531 -0.0032761225 0.038631674 0.014313754
0000e0 c5 29 be 3b fe b7 bf 3c 1e 0a c7 bb c0 74 fc bc
       0.005803319 0.023403164 -0.006074204 -0.03081739
0000f0 ce 83 df 3c 4d 30 73 bd 5c 97 42 ba ae a8 7c bd
       0.027284529 -0.059372235 -0.0007423067 -0.061684303
000100 29 f6 01 bd 64 ea 8f 3c da 12 ab 3c 80 7f 01 3d
       -0.031728897 0.01756782 0.020883013 0.031615734
000110 e2 43 04 3d e7 6c 57 bd 77 03 7d bd af 37 37 3d
       0.0322913 -0.05259409 -0.061770882 0.04473084
000120 f2 49 69 3d 29 d8 cc bc cf 05 54 3c 8a db fa bc
       0.056955285 -0.025005417 0.012940838 -0.030622263
000130 2e 55 d7 3c d0 26 0f bc ba 3d ae 3c 9a e6 98 bb
       0.026285734 -0.008737281 0.021269668 -0.0046661617
000140 f7 57 bb 3c 36 77 be 3c 2b ee 2d 3d da 18 46 bd
       0.022869093 0.023250204 0.042463463 -0.048363544
000150 84 43 55 bd d8 aa f5 bc 79 95 0f 3c 81 ad 02 bd
       -0.05206634 -0.029988691 0.008763664 -0.031903747
000160 81 e0 61 bd 5b 5c cc bc ed be 10 bd 02 43 33 bd
       -0.055145744 -0.024946382 -0.03533833 -0.043765076
000170 79 10 83 bd 1e ec 34 3c b6 f7 1e bd 39 a1 24 bd
       -0.06399626 0.011042623 -0.038810454 -0.040192816
000180 82 f8 30 bd 98 18 e7 bc 92 60 cd 3c 6b 80 29 bd
       -0.043205746 -0.02820997 0.025070462 -0.041382235
000190 7c e1 4c 3d 97 b4 96 bc f4 82 b0 ba 66 00 21 3d
       0.050019726 -0.018396659 -0.0013466761 0.03930702
0001a0 d3 ff 49 bd 1b 3c 0b 3d 01 54 79 bd 56 a0 c1 bb
       -0.04931624 0.033992868 -0.060871128 -0.005909006
0001b0 b5 54 09 bd 13 5d 2b 3d 83 8b e0 3b 76 d8 38 3c
       -0.03352805 0.04183681 0.0068525686 0.011282077
0001c0 ef cb bc bc 11 ee 50 bd 50 21 f5 bb 46 31 eb bc
       -0.023046462 -0.051008288 -0.007480778 -0.028710019
0001d0 6c f8 aa bc 67 57 2c bd df 6c a2 bc 6b 8f 27 3d
       -0.02087041 -0.04207554 -0.019827304 0.04090826
0001e0 d8 34 e6 bc 76 88 e2 3c ef 42 8f bc 12 19 4c 3c
       -0.02810137 0.02765296 -0.017487971 0.012457149
0001f0 72 f8 6b bd 10 e9 25 bd bb 6c 8e bb ea 16 e5 3c
       -0.057609983 -0.04050547 -0.004346458 0.027965028
000200 8d 02 35 3d 14 9d 0f 3d 2b ab 52 ba 43 23 60 3d
       0.044191886 0.03506191 -0.000803637 0.05472113
000210 74 ae 0a bc 98 98 97 bc d8 f0 83 bb f2 b8 81 bd
       -0.008464444 -0.01850538 -0.0040265135 -0.06334104
000220 27 62 13 3d ed d9 58 bd 21 b3 92 3c fd 95 70 3c
       0.035982277 -0.052942205 0.017907681 0.0146841975
000230 c6 50 4d bd ce 0c 4f 3d e0 f8 7f bd a0 f4 21 3c
       -0.05012586 0.05054932 -0.062493205 0.009884983
000240 2a 0f b5 bc 96 8b c9 bc a8 c2 0f 3d 1b 49 1a bc
       -0.022101957 -0.024602693 0.035097748 -0.009416844
000250 cd 0e 04 bd 70 76 10 3d 44 78 ff 3c eb b1 0e bd
       -0.032240678 0.0352692 0.031185277 -0.034837645
000260 bf 9a 44 bd d2 f9 f3 bc d8 a5 57 3d d8 fc 1f bd
       -0.04799914 -0.02978221 0.052648395 -0.03905949
000270 3d 90 72 bd 0d 1a 03 bd 7c 46 51 bd 90 dc 72 bd
       -0.059219588 -0.032007266 -0.05109261 -0.059292376
000280 f5 95 4b bd 89 26 33 bd 94 30 1e 3d fa 83 98 3b
       -0.049703557 -0.043737922 0.038620546 0.0046544047
000290 a2 7f 12 3d d4 be 9c bb 8f 5f cf bc 56 60 20 bc
       0.03576625 -0.0047834907 -0.02531412 -0.009788593
0002a0 05 fd 36 bd ef f2 35 3d 38 43 54 bd ad a6 c7 bc
       -0.044674892 0.044421133 -0.051821917 -0.02437147
0002b0 9a c1 30 3d d8 b0 38 bd a4 e7 26 3c 81 00 6a 3a
       0.043153383 -0.045090526 0.010187063 0.00089264667
0002c0 8b 1d 6f bd 91 00 19 bb 17 b4 3e bd d6 ad 2b 3d
       -0.058377784 -0.0023346285 -0.046558466 0.04191383
0002d0 98 39 17 bc ed ec 3d 3d 47 93 37 3d 81 36 3a 3d
       -0.00923004 0.04636853 0.04481819 0.045462135
0002e0 d9 28 05 3c f0 5b 4b bd 6c ed bb bc 44 d9 b9 3c
       0.008127415 -0.049648225 -0.02294036 0.022686608
0002f0 f6 03 a3 3c 44 3b 57 bc 72 9a 50 bd 1c ea 07 bd
       0.01989935 -0.013136689 -0.05092854 -0.03318225
000300 0b 86 17 bd b1 af ec bc 77 42 09 3a d2 7e dc 3c
       -0.036993068 -0.02889237 0.0005236039 0.026915941
000310 14 fb 29 3c c2 c3 26 bd c4 7b 87 3c 8a 21 4f 3c
       0.010374803 -0.040714033 0.016538508 0.012642274
000320 e0 00 4a bc ea 70 df bc 5c c1 0a 3d 53 b9 47 bd
       -0.01232931 -0.027275521 0.033875808 -0.048760723
000330 d6 2d 7c bd bf b3 5d 3a 0f fa e8 bb f2 49 af bc
       -0.06156715 0.0008457265 -0.0071098874 -0.021397565
000340 37 79 56 3d 4e 70 aa 3c d7 e8 00 bd 38 4f c8 3c
       0.052361693 0.020805504 -0.031472053 0.024451837
000350 da dc 3f 3a cc 86 2a bc 2f 09 6e bd a0 91 bf 3b
       0.0007318981 -0.010408115 -0.058114227 0.0058462173
000360 63 f8 74 bc ea 43 10 3d 3c fc 1b 3c 35 e7 ea 3b
       -0.014951798 0.035221018 0.009520587 0.0071686753
000370 a5 0b 87 3c e1 ac 53 3d f2 2b 2b bd 0b 49 45 bd
       0.016485045 0.051678542 -0.041789956 -0.048165362
000380 4a 31 af 38 c6 ab 1d 3d 66 d7 c5 3c e9 08 73 3b
       8.353831e-05 0.038493894 0.024150562 0.0037084168
000390 26 4d 0b 3d fe f1 de 3c 2e e9 21 bd 13 be 35 bd
       0.03400912 0.027215 -0.039529018 -0.044370722
0003a0 2f 81 0b 3d 2f 54 12 bd 24 a9 cc bc ff 14 87 bc
       0.034058746 -0.035724815 -0.024982996 -0.016489504
0003b0 6d 71 e6 3c 1f 0b 9d bc ba 81 25 bd 60 6f cc 3c
       0.028130258 -0.019170342 -0.04040692 0.024955451
0003c0 10 79 f4 3c 93 56 57 3c 82 4a e8 3c 84 1a 70 bd
       0.029842883 0.0131431995 0.02835584 -0.058619037
0003d0 57 21 6c bc 6d 6e 19 3d 23 ee 44 bd 7b 1b 87 bc
       -0.014412246 0.037458826 -0.048078667 -0.016492596
0003e0 c6 47 2f bd 73 c3 fe bc 75 e6 f4 bc 7a 49 35 bd
       -0.042793058 -0.031099057 -0.029895047 -0.044259526
0003f0 70 7a 03 bd 85 47 73 bc 75 5c 02 bc 9f 42 ef 3c
       -0.032099187 -0.014848595 -0.007956614 0.029206572

fc1.bias f4 [20]
000000 db 39 03 bd f6 7f f1 bc 93 33 83 bd e1 03 1f 3d
       -0.032037597 -0.029479962 -0.064063214 0.03882206
000010 88 ff 4f bc 31 b9 03 3d 8a 8c d1 bb ce 4e dd 3d
       -0.012695201 0.032159034 -0.0063949274 0.108060464
000020 6d 0f c7 3d 26 fa 04 bd c8 1c c5 bb c0 98 0e 3d
       0.09719739 -0.032465123 -0.006015394 0.034813643
000030 89 71 f8 3d 10 ff 69 bd fc a7 77 3d 25 35 c7 3c
       0.1213103 -0.057128012 0.060462937 0.024317333
000040 c8 46 64 bd 69 8e 1d 3c 95 f5 96 3d 44 c8 4e bd
       -0.055731565 0.009616473 0.0737106 -0.050483957

fc2.weight f4 [10, 20]
000000 7e 5d a0 bd 41 c2 d4 3c 5e e6 9e 3d 96 f9 4a 3a
       -0.07830332 0.025971534 0.07758783 0.00077428797
000010 61 ed c6 be 5f 0e b2 be 08 7c 71 3d 81 e3 85 3d
       -0.3885298 -0.3477659 0.058956176 0.065375336
000020 5d 56 87 bd 92 c0 d1 3d c0 ec 75 3e 19 d5 f0 bd
       -0.06608269 0.10241808 0.24016094 -0.11759395
000030 f6 0b 1a bd 66 46 48 be a9 2c 36 be e2 e9 c4 bd
       -0.037609063 -0.19558105 -0.17790474 -0.09614922
000040 32 93 0a be 89 74 8c 3e f4 6f d5 3d a2 a0 b1 3d
       -0.13532713 0.2743266 0.10421744 0.086732164
000050 0f 52 83 bd ec f7 43 bc 21 4a 53 bd dc cc 7b be
       -0.06412136 -0.011960965 -0.051584367 -0.24589866
000060 aa 41 76 be ff 87 3b 3e 3f ff 42 be f0 0d 87 3d
       -0.24048486 0.18313597 -0.19042681 0.06594455
000070 6f 7e 03 3d f6 ee e3 3d 64 3e aa be 7b 53 79 3e
       0.032103 0.111295626 -0.33250725 0.24348252
000080 dc 9e bc bc eb 11 ef bd f4 85 87 3e 0f bf 95 3d
       -0.023024969 -0.116733395 0.26469386 0.07311832
000090 4a d9 f2 bd c3 f1 0b 3c 46 37 41 3e ee d0 80 be
       -0.11857851 0.008541527 0.18868741 -0.251594
0000a0 6d 52 dd bd 26 a4 c8 bd df ab 69 3d c8 91 14 bd
       -0.10806737 -0.09796934 0.057048675 -0.03627184
0000b0 61 fc ef 3d 19 00 06 bd 37 ca 2b be ef c5 da 3d
       0.11718059 -0.032714937 -0.16776358 0.10682284
0000c0 44 a6 44 3e d0 e7 95 3d 7a 85 98 bd 48 b1 40 bc
       0.1920405 0.07319605 -0.07447334 -0.011761017
0000d0 ab 2d 21 be a4 de 0f 3e f6 bd a0 be 7f 12 68 bd
       -0.15740077 0.14049774 -0.3139493 -0.056658264
0000e0 b6 f9 a1 3d 33 e9 7b bd 2d 65 e1 3d b0 6a fa 3d
       0.07908957 -0.061501693 0.11005626 0.1222738
0000f0 27 0d 8c bd c4 c6 56 3e 36 ba 08 be 34 9b da bd
       -0.06838446 0.2097426 -0.13352284 -0.10674134
000100 69 b7 4a be 6b 32 cf bd b6 7a 47 bc 89 77 31 be
       -0.19796528 -0.10117038 -0.012175253 -0.17330755
000110 a7 fe 03 3d b3 9a 15 be 07 22 4c 3e d7 f1 00 be
       0.032225277 -0.14609794 0.19934855 -0.12592255
000120 ec 1c 10 be 8e 2c 59 3e a8 c9 f1 b9 e1 b7 63 3e
       -0.14073533 0.21208403 -0.00046117348 0.22238113
000130 e8 13 66 bd 35 09 6d be 6d 02 88 3e 5b ba ec bd
       -0.056171328 -0.23148043 0.2656435 -0.11558982
000140 87 3d c8 3c 41 91 58 3d ff 28 57 be f1 06 55 3d
       0.024443401 0.0528729 -0.21011733 0.052008573
000150 74 61 16 3e 25 0b 87 be c9 98 2a be 4e f0 81 be
       0.14685613 -0.2637569 -0.16659845 -0.2537865
000160 a4 7c 33 3e 5e 17 57 3e 7f 83 9f 3c fa 91 32 3e
       0.17528015 0.21005008 0.019471882 0.17438498
000170 47 8e b6 3d 7e b3 97 be 3e 07 a0 bd c7 42 48 3e
       0.08913856 -0.2962913 -0.07813881 0.19556724
000180 a5 45 02 bd 23 1a 03 bc 64 65 79 be ec 73 5c 3e
       -0.0318047 -0.008001837 -0.24355084 0.21528596
000190 af 8d 3e be 49 1b 11 be 04 ef 07 3e d3 fa a6 bd
       -0.18608736 -0.14170565 0.13274771 -0.0815331
0001a0 57 fe 30 be 0d 79 95 bc ea 5b 21 3e 7d 8d 13 3e
       -0.17284523 -0.018246198 0.15757719 0.14409442
0001b0 b0 a0 22 be 59 5d 8f be f7 a0 e2 3d df da 27 bd
       -0.1588161 -0.28000906 0.11065858 -0.040980216
0001c0 da 2e 15 3e 5a f1 2f be 74 55 5b be 99 ca 9e 3e
       0.14568654 -0.17181912 -0.21419317 0.31013945
0001d0 6f c4 70 be 2a 42 7d bd 39 40 28 3e f6 f7 f1 bc
       -0.23512433 -0.061830677 0.16430749 -0.029537182
0001e0 f8 66 33 3e 03 fb 1a 3e 15 85 dd 3d 30 37 32 3e
       0.17519748 0.15134816 0.10816399 0.17403865
0001f0 2c cd f3 bc 5a ee a0 3d 26 51 8d bd 93 87 a8 3c
       -0.02976092 0.07857962 -0.069002435 0.02057246
000200 84 1d 94 be df 92 72 3e 5c 75 7d 3b 34 ca 1b 3e
       -0.2892877 0.2368884 0.0038674688 0.15213853
000210 cb 7d 36 bd 39 fa 66 be 5e 63 3b be 31 f9 60 be
       -0.04455356 -0.2255639 -0.18299624 -0.21970059
000220 44 0f 59 be 15 36 7d be 81 75 5c 3e bb 34 47 3e
       -0.2119723 -0.24727662 0.21529199 0.19453709
000230 35 53 9e 3d f1 fc 12 be 31 88 53 be 43 5e 4c 3e
       0.07730714 -0.14354302 -0.20657422 0.19957833
000240 b9 f8 70 bd 0f 32 8e be ad 7e 12 bd f9 a7 85 be
       -0.05883095 -0.27772567 -0.03576534 -0.26104715
000250 a5 17 3e 3e 2a 43 15 be b5 f7 72 bd 07 ce be bd
       0.18563707 -0.14576402 -0.059318263 -0.0931664
000260 f3 2a 81 3e 16 e8 7e 3c 89 dc 51 3c 5e 17 6a be
       0.2522808 0.015558263 0.012808927 -0.22860476
000270 36 7c 1a be b2 c3 b9 3d 2f 4e 41 3d 27 ba 42 be
       -0.15086445 0.09070529 0.047193702 -0.19016324
000280 28 37 1d be 9d dd 7c 3d c2 1f 94 bc a3 4c ed 3d
       -0.15353072 0.061734784 -0.01808155 0.11586883
000290 8e c6 cf 3c 38 14 5c 3d 35 8d cf 3c 48 3a 97 bd
       0.025363233 0.05373022 0.025335887 -0.07384163
0002a0 e0 36 f4 bd 08 7c fd 3d 47 48 dd 3d 0f 3d 90 be
       -0.11924529 0.12377173 0.108048014 -0.28171584
0002b0 e8 c8 5a be ad ce 3d 3d bc 15 6a 3d a8 80 3e 3e
       -0.21365702 0.04633968 0.057149634 0.18603766
0002c0 4d 14 b3 3d c6 22 6c 3e 2a 03 1a be 93 81 a6 ba
       0.087441064 0.2306014 -0.1504027 -0.0012703411
0002d0 aa 97 d5 bd a2 d3 5f 3e 46 18 a7 bd 32 07 a0 3d
       -0.10429318 0.21858075 -0.08158927 0.078138724
0002e0 70 dd ad bc 5e 1b 31 be bd a3 39 3e aa 9a a0 3c
       -0.021223754 -0.17295596 0.18128867 0.019605
0002f0 59 d2 62 3c 47 8f 70 3e 2b 1e 3b 3e 41 e3 c0 be
       0.013844096 0.23492156 0.18273227 -0.3767338
000300 dc 51 d4 3d 43 46 f0 bc 07 94 40 bc ac 57 79 3d
       0.10367176 -0.029330378 -0.0117540425 0.060874626
000310 5f ea 21 bb 74 08 1f be 93 bd a2 be 3e 47 77 be
       -0.0024706346 -0.15530568 -0.3178526 -0.2414827

fc2.bias f4 [10]
000000 9a 02 a3 bd 02 e1 e1 bd 3f 10 ed 3d 25 30 bf 3d
       -0.079594806 -0.11029245 0.11575364 0.09335355
000010 d5 77 08 be 4a eb 5b 3e ce 10 35 be 69 28 0e 3e
       -0.13326962 0.21476474 -0.17682192 0.13882603
000020 33 fe 20 3d 5d 7d 0d 3e
       0.039304923 0.13817354
