models/mnist_model_20241116_221722_acc87.8.pth (torch, 28880 bytes, 8 tensors)

conv1.weight f4 [4, 1, 3, 3]
0	0x3eba1c50	0.36349726
1	0x3e47f380	0.19526482
2	0x3ec32698	0.38115382
3	0x3b16c00f	0.002300266
4	0x3d83017e	0.06396769
5	0x3f03c374	0.5147011
6	0xbefd8cc9	-0.49521473
7	0xbeda9566	-0.42692107
8	0xbe81432b	-0.25246558
9	0xbe270780	-0.16311455
10	0x3e78b4de	0.24287745
11	0x3f09b41a	0.5379044
12	0x3eb21a44	0.34785664
13	0x3f0b6efe	0.54466236
14	0x3ee6276a	0.44951946
15	0xbde3e0a2	-0.1112683
16	0x3de1324b	0.10995921
17	0x3e3c65d9	0.18398227
18	0x3ea2bf8d	0.31786767
19	0x3d8f15d6	0.06986587
20	0x3f155fab	0.583491
21	0xbe23b1aa	-0.15985742
22	0xbdac60c9	-0.08416898
23	0x3eb7a7d9	0.35870245
24	0xbf0646cc	-0.5245178
25	0xbea31ea2	-0.31859308
26	0x3ee3a2e7	0.44460222
27	0x3e502acd	0.20328827
28	0xbd1cca69	-0.03827897
29	0x3e4d1777	0.20028482
30	0x3ed40e86	0.4141733
31	0x3efb6f00	0.49108124
32	0x3eb0eddd	0.34556475
33	0x3ef3c520	0.47611332
34	0x3e8e0551	0.2773843
35	0xbb6bcc46	-0.003597991

conv1.bias f4 [4]
0	0x3e80963c	0.2511462
1	0xbc021176	-0.007938733
2	0x3e30d58e	0.17268965
3	0xbbdf48d8	-0.0068141036

conv2.weight f4 [8, 4, 3, 3]
0	0xbdbcaf2d	-0.092131
1	0xbd810a0f	-0.06300747
2	0x3ded6258	0.11591023
3	0xbe7e8f54	-0.24859363
4	0xbeaa6db5	-0.33286825
5	0xbd622ca0	-0.05521834
6	0xbecb6450	-0.3972497
7	0xbe4f52fa	-0.20246497
8	0x3dc55c9d	0.09636805
9	0x3e832f76	0.25622147
10	0x3e9fa983	0.31184015
11	0xbdd8ff8b	-0.10595616
12	0x3e2e7b07	0.17039119
13	0x3cd48f50	0.025947243
14	0xbe32f969	-0.17477955
15	0x3c828d35	0.015936473
16	0xbe7c8d16	-0.24663195
17	0xbe3af996	-0.18259272
18	0x3d8d0e66	0.06887512
19	0xbec04948	-0.3755591
20	0xbc7fed28	-0.015620507
21	0xbea86a52	-0.32893616
22	0xbeb7cf3e	-0.359003
23	0x3e19c6ee	0.15017292
24	0xbe8b3c5c	-0.27194488
25	0xbe7d1965	-0.24716718
26	0xbda39715	-0.07987801
27	0x3e917cb0	0.28415442
28	0x3e8ddb21	0.27706245
29	0xbcef6aaf	-0.029225675
30	0x3ea1615e	0.31519598
31	0x3d07660c	0.033056304
32	0xbddbadc8	-0.107265055
33	0x3e5c5d77	0.21520029
34	0x3d4edbc5	0.050502557
35	0xbe850550	-0.25980616
36	0xbe10230d	-0.14075871
37	0xbd8f079c	-0.06983873
38	0x3cc72d0e	0.024313476
39	0xbd484b24	-0.048899785
40	0xbd56edcd	-0.05247288
41	0xbeba2ef4	-0.36363947
42	0x3e97da9e	0.2965898
43	0x3ebdb641	0.3705311
44	0x3e8f02af	0.27931735
45	0xbe99c291	-0.30031255
46	0xbe7aa501	-0.24477006
47	0xbeae7684	-0.34074795
48	0x3d8fbf3e	0.070188984
49	0xbda6f06a	-0.08151324
50	0xbdb445ac	-0.08802351
51	0x3ea04b3c	0.313074
52	0x3e95efb1	0.29284433
53	0x3e37d634	0.17952806
54	0xbeed7b87	-0.46383306
55	0xbd3b52a6	-0.045733117
56	0xbe8d03b0	-0.27541876
57	0xbe7a03d8	-0.24415529
58	0xbead751d	-0.33878413
59	0xbdc1951a	-0.09452267
60	0x3e02705d	0.12738176
61	0x3d41991d	0.04726516
62	0x3e53fc9b	0.2070183
63	0x3dbf2d43	0.09334805
64	0xbe4e6866	-0.20157012
65	0xbe8a39fe	-0.2699737
66	0x3ddb1ca3	0.106988214
67	0x3e0c6a0c	0.13712329
68	0x3de73bdf	0.112907164
69	0x3d9c3e82	0.0762911
70	0x3e85f080	0.2616005
71	0x3eb94d12	0.36191612
72	0x3d082cd6	0.033245884
73	0x3d465369	0.04841939
74	0x3e5abb7e	0.21360585
75	0xbe1063aa	-0.14100519
76	0xbc291b5a	-0.0103214625
77	0x3e5d5345	0.21613796
78	0xbd674b7c	-0.056468472
79	0xbd801341	-0.062536724
80	0x3e34ec95	0.17668374
81	0xbe52da88	-0.20591176
82	0x3d9c13db	0.07620975
83	0x3ea5c157	0.3237407
84	0xbc90efec	-0.017692529
85	0x3e195932	0.14975432
86	0x3e5863ec	0.21131867
87	0x3e1f9be8	0.15586817
88	0xbc392984	-0.011301402
89	0x3e29eb5a	0.16593686
90	0xbe99c0e9	-0.3002999
91	0xbdb740db	-0.08947917
92	0xbe07c85c	-0.13260025
93	0xbe439072	-0.1909807
94	0xbe31b185	-0.17352875
95	0x3da801a8	0.08203441
96	0xbebd7153	-0.37000522
97	0xbe755e36	-0.2396172
98	0xbe578c1a	-0.21049538
99	0x3e47667b	0.19472687
100	0x3e69933f	0.22810076
101	0x3e5e1453	0.2168744
102	0x3c4a0d06	0.012332207
103	0x3e600706	0.21877679
104	0x3dc3a954	0.09553781
105	0x3e30c7e0	0.17263746
106	0x3d34ab55	0.044108707
107	0x3cd442c3	0.02591074
108	0xbd46a659	-0.048498485
109	0x3d838066	0.064209744
110	0xbe3ce5d6	-0.1844705
111	0x3d8e5efb	0.0695171
112	0xbe5d5af4	-0.21616727
113	0xbe309bf9	-0.17246999
114	0xbe31a900	-0.17349625
115	0xbddf1034	-0.108917624
116	0xbe9c870c	-0.30571783
117	0x3a7a20cc	0.000954163
118	0x3e251bf8	0.1612395
119	0x3dd1aab3	0.102376364
120	0x3dd0c801	0.10194398
121	0x3d7d1b31	0.06179351
122	0x3d4c0521	0.04980958
123	0x3dbede84	0.09319785
124	0x3b9af4a0	0.0047288686
125	0x3d533e71	0.05157322
126	0x3cb7a30f	0.02241662
127	0x3e5f5d33	0.21812896
128	0xbd0f5f03	-0.03500272
129	0xbd480c23	-0.0488397
130	0xbdc55438	-0.09635204
131	0xbdd3f952	-0.103502885
132	0x3d400707	0.0468817
133	0x3d9af503	0.075662635
134	0xbea2f3d2	-0.31826645
135	0xbe87e54f	-0.26542136
136	0xbdd53d3d	-0.10412071
137	0x3e1690df	0.14703701
138	0xbdd1ffd6	-0.10253875
139	0x3ddb71da	0.10715075
140	0x3e14efcb	0.14544599
141	0x3e48a466	0.19593963
142	0x3cf34886	0.029697668
143	0x3e5744bd	0.21022315
144	0x3e6c2501	0.23060991
145	0xbe88bc2f	-0.26706073
146	0xbec5caa7	-0.38631174
147	0xbd06d334	-0.032916263
148	0xbeb14f75	-0.34630933
149	0xbed0b023	-0.40759382
150	0xbe34a9b2	-0.17642859
151	0xbed91306	-0.42397326
152	0xbec7c9ff	-0.39021298
153	0x3e92a021	0.28637794
154	0x3e3a8d61	0.18217994
155	0xbcee51d9	-0.029091762
156	0x3e56a6db	0.20962088
157	0x3e5d6ce9	0.21623577
158	0xbe99cec1	-0.30040553
159	0x3d3753ba	0.044757582
160	0xbc6030cb	-0.013683508
161	0xbe2e28a5	-0.17007692
162	0x3ef92a73	0.486652
163	0x3c42fe9a	0.011901522
164	0xbe17d04b	-0.14825551
165	0x3e9a5820	0.3014536
166	0xbe723031	-0.23651196
167	0xbee74012	-0.4516607
168	0x3d61feb7	0.055174556
169	0xbe37b702	-0.17940906
170	0xbea44e31	-0.32090905
171	0x3cb8cb64	0.022557922
172	0x3e1e9eed	0.15490313
173	0x3e0822d4	0.13294536
174	0xbdc5e95a	-0.09663649
175	0x3ddd96cd	0.108197786
176	0xbc6e5aca	-0.014548013
177	0x3e3ed993	0.18637685
178	0x3e4b836c	0.19874352
179	0x3e310505	0.17287071
180	0x3e244273	0.16040973
181	0x3e905fb0	0.28198004
182	0x3e15889e	0.14602897
183	0x3ea9c029	0.3315442
184	0x3e4a8f25	0.19781168
185	0x3ed5e127	0.4177334
186	0x3d4db837	0.05022451
187	0x3e02cda1	0.12773754
188	0x3ecd4862	0.40094286
189	0x3cb5bf2a	0.02218588
190	0xbd08af2f	-0.033370193
191	0x3e62ae8b	0.22136895
192	0x3e4707b3	0.19436531
193	0x3dead3e0	0.11466193
194	0x3e034ede	0.12823054
195	0xbe8eefcd	-0.27917328
196	0xbe795d81	-0.24352075
197	0xbdf1f160	-0.11813617
198	0x3dffb247	0.124851756
199	0x3e26b1d0	0.16278768
200	0x3de160d6	0.11004798
201	0x3e72c80c	0.23709124
202	0x3e083786	0.1330243
203	0x3eb9d782	0.36297232
204	0x3e39104b	0.18072622
205	0x3e2d4823	0.16922049
206	0x3e56a8bf	0.20962809
207	0xbd48fb9b	-0.049068075
208	0xbd5ffd42	-0.054684885
209	0x3e82d129	0.25550202
210	0x3e0b97fa	0.13632193
211	0x3d51cd3b	0.051221114
212	0xbe007e93	-0.12548284
213	0xbe80655c	-0.2507733
214	0xbe911a17	-0.28340217
215	0xbe979101	-0.29602817
216	0x3dea654b	0.11445101
217	0xbe415f14	-0.18883926
218	0xbdcca414	-0.09992233
219	0xbdd7fe2e	-0.10546528
220	0xbc3ae27a	-0.011406535
221	0x3cf94961	0.030430498
222	0x3d5bc0e2	0.053650744
223	0xbccaaed0	-0.02474156
224	0x3e40d19c	0.1882996
225	0x3e038d15	0.12846787
226	0x3cb46373	0.022020077
227	0xbde79caf	-0.11309182
228	0x3e0007c9	0.1250297
229	0xbd13710d	-0.035996486
230	0x3e511b3b	0.20420544
231	0x3e28f8d8	0.16501176
232	0xbdd6a16c	-0.104800075
233	0x3d37a425	0.044834275
234	0xbddd5ead	-0.108090736
235	0x3d8e8523	0.069589876
236	0x3d19f81b	0.037590127
237	0xbe42f477	-0.19038568
238	0x3dfc9f0f	0.123350255
239	0x3e58112d	0.21100302
240	0x3db36e2f	0.0876125
241	0x3e2ce9f9	0.16886128
242	0x3d03288a	0.032021083
243	0x3da50abf	0.0805869
244	0xbdfa1ee2	-0.12212922
245	0x3e1ed962	0.15512612
246	0x3ccc7337	0.024957282
247	0x3de68c95	0.11257283
248	0x3e0e01cc	0.13867873
249	0x3e43ae8b	0.19109552
250	0xbe28bba1	-0.16477825
251	0x3df896a7	0.1213811
252	0x3d1f617f	0.03891134
253	0xbc6ddae2	-0.014517518
254	0xbcd37870	-0.025814265
255	0x3df56db9	0.119838186

conv2.bias f4 [8]
0	0x3da896b7	0.082318716
1	0x3d9b6919	0.07588405
2	0xbd300f20	-0.042983174
3	0x3dac21fb	0.08404919
4	0xbcce32d8	-0.025170729
5	0x3dfbd8eb	0.12297233
6	0x3d97a3ff	0.07404327
7	0xbc4097ed	-0.011754972

fc1.weight f4 [20, 288]
0	0xbbc24599	-0.005928707
1	0x3c922ad8	0.017842695
2	0xbb0ed6b7	-0.002179546
3	0x3cbca234	0.023026563
4	0xbd031c06	-0.032009147
5	0xbc8ab74f	-0.016933111
6	0xbcecfe15	-0.02892975
7	0x3d2ba5bb	0.0419061
8	0x3cd24894	0.025669374
9	0x3bf1d347	0.0073799226
10	0xbc8723c2	-0.016496543
11	0x3cb88d74	0.022528388
12	0xbccf08bf	-0.025272725
13	0xbd8295bb	-0.06376215
14	0xbd76850c	-0.060185477
15	0x3d0e364a	0.034719743
16	0xbc13fb76	-0.009032121
17	0x3c7bacc7	0.015361018
18	0x3d3f0cc7	0.046643045
19	0xbd5c708b	-0.053818267
20	0x3d26fcc7	0.04076841
21	0xbca461bf	-0.02006614
22	0xbd8abdbd	-0.06774471
23	0x3d2eb238	0.04265043
24	0xbc413339	-0.011791998
25	0x3b12af8e	0.002238247
26	0xbd280268	-0.04101792
27	0x3c8e4bd4	0.017370142
28	0xbbab7e09	-0.0052335304
29	0x3cb0e225	0.02159221
30	0xbd610d3c	-0.054944262
31	0x3c8d1b14	0.017224826
32	0xbd19cfab	-0.037551563
33	0x3c975da5	0.01847727
34	0xbd100797	-0.03516349
35	0xbc9b4ae7	-0.018956615
36	0x3ca52542	0.020159367
37	0xbd258184	-0.04040672
38	0x3b989638	0.0046565793
39	0xbd25e643	-0.040502798
40	0xbd1e969e	-0.03871786
41	0xbd865f78	-0.06561178
42	0xbcf373ac	-0.029718243
43	0xbc859349	-0.016305583
44	0xbd326013	-0.043548655
45	0xbd02a3dc	-0.03189455
46	0xbd1a8b44	-0.03773047
47	0xbb39f6cb	-0.002837586
48	0x3cf279f9	0.029599177
49	0x3cf4e6f8	0.02989529
50	0xbd435dbe	-0.04769682
51	0x3b79083c	0.0037999293
52	0x3d3105cf	0.04321843
53	0xbcdc32d1	-0.0268797
54	0x3cdf77b4	0.027278759
55	0xbd7bb404	-0.061450973
56	0xbbba9db2	-0.0056950683
57	0x3d322742	0.04349447
58	0xbc83eeb7	-0.016105039
59	0x3d01b8d3	0.031670403
60	0x3caad5cf	0.020853905
61	0xbd47e3bb	-0.048801165
62	0xbb911110	-0.004427083
63	0x3c35addb	0.011088814
64	0xbd22f0c9	-0.039780412
65	0x3bf001a6	0.0073244153
66	0x3d2d4a9b	0.042307477
67	0xbc83dcc2	-0.016096476
68	0xbd07a20c	-0.033113524
69	0xbd6a0aa9	-0.057139073
70	0x3c0a0708	0.008424528
71	0xbd2f28e2	-0.0427636
72	0x3cba70f6	0.022758942
73	0x3d616d65	0.055035967
74	0x3cd9bb72	0.026578639
75	0xbcdcd8be	-0.02695882
76	0xbd45552e	-0.048176937
77	0x3cd78d4f	0.026312498
78	0x3beeca75	0.0072873184
79	0xbd888dd3	-0.06667676
80	0x3bde9d49	0.006793652
81	0xbd845677	-0.06461804
82	0x3c11b6b5	0.008893658
83	0x3cca218f	0.024674205
84	0x3c6bc728	0.014390744
85	0xbd506f22	-0.050887235
86	0xbd355aa5	-0.0442759
87	0xbd4d6af3	-0.050150823
88	0x3ce149c6	0.027500998
89	0x3c84cadd	0.016210014
90	0x3c5cfc68	0.013487913
91	0xbd804349	-0.062628336
92	0x3d5371c9	0.051622186
93	0xbd5cbfe3	-0.053893935
94	0x3cdfbe11	0.02731231
95	0xbbee0e89	-0.0072649163
96	0xbd66c581	-0.0563407
97	0xb8b47815	-8.605436e-05
98	0xbd3f6bc2	-0.046733625
99	0xbcc6b81c	-0.024257712
100	0x3d1bcc0d	0.038036395
101	0xbbd02e9e	-0.0063532135
102	0x3d1178a2	0.035515435
103	0x3b90a5d6	0.0044143004
104	0xbd3b70ff	-0.04576206
105	0xbce5f9be	-0.028073188
106	0xbbe1dc2e	-0.0068927025
107	0x3887c139	6.473292e-05
108	0x3d20bc4d	0.039242078
109	0x3ccb1b58	0.024793312
110	0xbc615063	-0.013752076
111	0xbc459716	-0.0120599475
112	0xbbbe36d4	-0.005804876
113	0xbb555766	-0.0032553314
114	0x3c84e2b4	0.016221382
115	0x3d0312e4	0.032000437
116	0xbcf25ff0	-0.029586762
117	0xbd78e449	-0.060764585
118	0xbcaa1a00	-0.02076435
119	0x3d18ae24	0.03727545
120	0x3c8a008b	0.016845962
121	0x3c4eecf1	0.012629733
122	0x3cd442bd	0.02591073
123	0xbd39d961	-0.045373324
124	0xbc3f1739	-0.011663252
125	0x3c287d85	0.010283832
126	0xbd1c9fea	-0.038238443
127	0x3c47afe9	0.012187936
128	0x3d5c29b2	0.0537507
129	0x3cbc7194	0.023003377
130	0x3d3bb5d1	0.04582769
131	0x3b9dc532	0.0048147673
132	0x3d195a99	0.037439916
133	0xbd78278f	-0.0605846
134	0xbb7b1e4c	-0.003831762
135	0x3d2aa5d4	0.041662052
136	0x3c61dca7	0.013785518
137	0x3b738efd	0.0037164085
138	0xba67cecb	-0.0008842765
139	0xbd0b4382	-0.033999927
140	0xbd4fb3eb	-0.050708693
141	0xbd80a517	-0.062814884
142	0x3c936682	0.017993215
143	0xbd530fa6	-0.051528595
144	0x3d427481	0.047474388
145	0xbcaf0b51	-0.0213677
146	0xbab6a099	-0.001393336
147	0xbcfff3be	-0.031244155
148	0x3d095a4e	0.033533387
149	0x3b70e29f	0.003675617
150	0xbca08e40	-0.01959908
151	0x3b9d14e2	0.004793749
152	0x3ab27c50	0.001361737
153	0xbd05607d	-0.03256272
154	0x3c97fa0a	0.018551845
155	0x3c24e345	0.010063951
156	0xbcae9840	-0.021312833
157	0x3b909eae	0.0044134473
158	0x3ca732bf	0.02040994
159	0xbd10327c	-0.035204396
160	0xbd2a61bc	-0.041597113
161	0xbd34ca23	-0.044138085
162	0xbb196436	-0.0023405678
163	0xbd7a2fe8	-0.061080843
164	0xbd2ca6f1	-0.042151395
165	0xbd0e532e	-0.034747295
166	0xbd7dc29d	-0.061953176
167	0x3d2698c4	0.040673032
168	0x3cadba6e	0.02120706
169	0x3c87a1c9	0.016556637
170	0xbd59ac32	-0.053142734
171	0x3c2bd5eb	0.010488014
172	0xbc10ab09	-0.00882984
173	0xbd1b33c3	-0.03789116
174	0x3c0a0f56	0.008426508
175	0x3c090694	0.008363385
176	0x3d10c7ba	0.035346724
177	0xbd460ce1	-0.048352126
178	0xbae2f342	-0.0017314928
179	0x3d568361	0.052371386
180	0x3cf92e34	0.03041754
181	0xbd77597e	-0.06038808
182	0x3cd5c9fd	0.026097292
183	0xbd82c506	-0.063852355
184	0xbcd96911	-0.026539357
185	0x3cd33468	0.025781825
186	0x3c7de068	0.015495397
187	0xbd6a9b40	-0.057276964
188	0xbd8971ce	-0.0671116
189	0xbcd57d78	-0.026060805
190	0xbd86cb46	-0.0658174
191	0x3d3d620c	0.046236083
192	0xbd525e2b	-0.051359337
193	0xbd457b78	-0.048213452
194	0xbcd2defa	-0.02574109
195	0xbd585e96	-0.05282458
196	0x3bf80f0b	0.0075701526
197	0x3cd4e708	0.02598907
198	0xbd82b3b0	-0.06381929
199	0x3d351852	0.044212647
200	0x3c96c336	0.01840363
201	0x3d24ddb8	0.04025051
202	0x3bd85d71	0.006602936
203	0xbd143498	-0.03618297
204	0xbd89007c	-0.066895455
205	0xbcff763c	-0.031184308
206	0x3d0cfba3	0.034419667
207	0xbced794e	-0.028988507
208	0xbd3a3406	-0.04545977
209	0xbd13cbdd	-0.03608309
210	0x3d3865bc	0.045018896
211	0x3c08978c	0.008336913
212	0xbc6f86d2	-0.014619546
213	0xbcc702c4	-0.024293311
214	0xbc217281	-0.00985396
215	0x3cbcef95	0.02306346
216	0xbd6a92f6	-0.05726906
217	0xbb826eba	-0.003980485
218	0xbce7758a	-0.02825429
219	0xbd612f2b	-0.054976624
220	0xbd33c7ee	-0.04389184
221	0xbce9aff2	-0.02852628
222	0x3bd8457a	0.006600079
223	0xbd24b2ee	-0.040209703
224	0xbd515efe	-0.051115982
225	0xbd40497c	-0.04694508
226	0xbaa615df	-0.0012671313
227	0xbb0cd4f8	-0.0021489244
228	0x3d14c2b5	0.0363185
229	0xbc8eb0db	-0.017418316
230	0xbd5f9e85	-0.054594535
231	0xbc1252f6	-0.008930912
232	0x3cb4325d	0.021996671
233	0xbc2a69d6	-0.01040121
234	0xbd3a123c	-0.045427546
235	0x3ccb0986	0.024784815
236	0xbcf604e4	-0.030031629
237	0xbd62917c	-0.055314526
238	0x3c08a4ba	0.008340055
239	0x3d295d7d	0.041348923
240	0x3d2e6369	0.042575274
241	0x3bd4f8dd	0.0064993934
242	0xbc3b684d	-0.011438441
243	0xbb7a6017	-0.0038204247
244	0xbb6b9183	-0.0035944886
245	0xbb322564	-0.002718293
246	0xbc4b3493	-0.012402671
247	0x3d0ca373	0.034335565
248	0x3c6c3d7f	0.014418959
249	0xbad8e479	-0.0016547582
250	0xbd70e3d4	-0.058811024
251	0x3d2178a8	0.039421707
252	0xbc9a69dc	-0.018849306
253	0x3d45174a	0.048117913
254	0xbd5cc3ff	-0.053897854
255	0x3d15fce7	0.03661814

fc1.bias f4 [20]
0	0xbd8c38b8	-0.06846756
1	0x3d16a40c	0.03677754
2	0x3d9dda40	0.077076435
3	0x3d1eac51	0.038738552
4	0x3d3890cb	0.04505996
5	0xbd45de46	-0.04830768
6	0x3ddbeeae	0.10738884
7	0x3d1d7d3e	0.03844952
8	0xbca33a82	-0.01992536
9	0xbd87725c	-0.06613609
10	0xbdb45b71	-0.088065036
11	0xbda0cfba	-0.07852121
12	0x3daa5103	0.08316233
13	0xbc8bfab1	-0.017087312
14	0xbd5907d3	-0.052985977
15	0x3d8e252c	0.06940684
16	0xbc38998f	-0.01126708
17	0x3de36043	0.11102345
18	0x3d19722d	0.037462402
19	0xbc8f12d5	-0.017465034

fc2.weight f4 [10, 20]
0	0xbe492262	-0.19642022
1	0x3dc07126	0.09396581
2	0xbdaf09c1	-0.08546782
3	0x3d8a2075	0.06744472
4	0x3e00ae6b	0.12566535
5	0xbdc859c7	-0.09782749
6	0xbe40d0f2	-0.18829706
7	0xba56ad15	-0.00081892434
8	0xbcfe7a04	-0.031064041
9	0x3e1d6d7f	0.153738
10	0x3d91d7a6	0.0712121
11	0x3d576913	0.05259044
12	0x3d90037e	0.07031916
13	0xbc07030c	-0.0082404725
14	0xbe447b28	-0.19187605
15	0x3e3f0fe4	0.18658406
16	0x3dac42d7	0.08411186
17	0xbea81062	-0.32825
18	0x3d8950ad	0.06704841
19	0x3e02b6c6	0.12765035
20	0x3dbaa92d	0.09114299
21	0x3e0773ab	0.13227718
22	0xbe5f18c6	-0.21786794
23	0x3e3167fe	0.17324826
24	0xbe879b50	-0.26485682
25	0xbe2a9bb2	-0.16660956
26	0x3eb8e3a9	0.3611119
27	0x3e627aa9	0.22117104
28	0xbdbbacc5	-0.091638125
29	0xbdb22a3c	-0.08699462
30	0xbea091f1	-0.31361344
31	0x3d915f48	0.070982516
32	0x3e7be934	0.24600679
33	0xbdd081f9	-0.1018104
34	0xbd949fd5	-0.07257048
35	0xbe1177ae	-0.1420581
36	0xbe096e06	-0.13420877
37	0x3e584c7d	0.21122928
38	0xbec26769	-0.3796952
39	0xbcce0f29	-0.025153713
40	0x3e244d81	0.1604519
41	0xbe649b56	-0.22324881
42	0xbd46acde	-0.048504703
43	0xbd83e386	-0.06439881
44	0x3e3b5af3	0.18296413
45	0xbdf7c7a6	-0.12098627
46	0xbe38bcd9	-0.1804079
47	0x3dcb49a1	0.09926153
48	0xbdbaeff5	-0.091277994
49	0xbbf01ba8	-0.0073275156
50	0x3e0b5593	0.13606863
51	0x3c9b10bb	0.018928876
52	0x3e183a75	0.1486605
53	0xbe5ffe9f	-0.21874474
54	0x3e02ba82	0.1276646
55	0x3c6085df	0.013703792
56	0x3e6a7b27	0.22898541
57	0xbe2bd5d1	-0.16780783
58	0xbeb8f513	-0.36124477
59	0xbdfaaa0c	-0.12239465
60	0xbde7444a	-0.11292322
61	0x3e569060	0.20953512
62	0xbe7947d2	-0.24343804
63	0x3e975b04	0.29561627
64	0xbe922ba8	-0.28548932
65	0x3d4ca703	0.049963962
66	0xbe78a97f	-0.24283408
67	0xbe5e9af8	-0.21738803
68	0x3e463de8	0.19359553
69	0xbe38d896	-0.18051371
70	0x3d302df6	0.04301258
71	0xbe09c1d9	-0.13452853
72	0x3e29bbb2	0.16575506
73	0xbe19290c	-0.14957064
74	0x3e7730aa	0.24139658
75	0x3b8f0286	0.0043643145
76	0x3deccf25	0.11562947
77	0xbce06eaf	-0.027396528
78	0xbe99d047	-0.30041716
79	0xbe705ab8	-0.23472106
80	0xbe469025	-0.19390924
81	0xbe05f6c6	-0.13082418
82	0xbddc73c8	-0.10764271
83	0xbe8a04bb	-0.26956734
84	0x3d907b7e	0.07054804
85	0xbe2de901	-0.16983415
86	0x3dc24d23	0.09487369
87	0xbe7dff5b	-0.24804442
88	0x3d6fc934	0.05854149
89	0xbe58bbf5	-0.2116545
90	0x3d971077	0.07376187
91	0xbe2190dd	-0.15777917
92	0x3e9f3c96	0.3110091
93	0xbca35805	-0.019939432
94	0xbe61e7a6	-0.22061023
95	0x3e2cc565	0.16872175
96	0xbe987f70	-0.29784727
97	0x3e1ec255	0.1550382
98	0x3e2f1bd1	0.17100455
99	0x3d9213e5	0.07132701
100	0xbe2783d1	-0.16358878
101	0x3c7281fb	0.014801498
102	0xbe504e12	-0.20342281
103	0xbd14989b	-0.03627835
104	0xbd88e42c	-0.06684145
105	0xbe0ea615	-0.13930543
106	0x3e08a4f3	0.13344173
107	0x3e43bd21	0.19115116
108	0x3c214134	0.009842206
109	0xbcb83eb2	-0.022490833
110	0xbe59039b	-0.21192782
111	0x3da33239	0.079685636
112	0xbe979b8a	-0.29610854
113	0x3b570baa	0.0032813349
114	0x3e99b9e8	0.30024648
115	0xbd86fd0e	-0.06591235
116	0xbe10fd68	-0.14159167
117	0xbde3be51	-0.11120284
118	0x3e3030ed	0.17206164
119	0xbe4622bc	-0.19349188
120	0x3e3d9434	0.18513566
121	0xbe2c59e9	-0.16831173
122	0x3e4562d5	0.19275983
123	0x3ce61168	0.028084472
124	0x3e364de8	0.17803156
125	0x3e14d0a9	0.14532723
126	0xbca68d01	-0.020330908
127	0x3d6f55c2	0.058431394
128	0x3c9c41f5	0.01907442
129	0xbe19a983	-0.1500607
130	0xbdd3af11	-0.10336126
131	0x3e844066	0.25830382
132	0x3bf398a7	0.007433969
133	0x3dcce35b	0.10004302
134	0xbe56f287	-0.20990954
135	0x3e87be3d	0.26512328
136	0xbeb33587	-0.35001776
137	0xbd81b487	-0.06333261
138	0xbe446f72	-0.19183138
139	0xbdebb5c7	-0.11509281
140	0x3ca480cd	0.020080948
141	0x3dead50c	0.11466417
142	0x3e723e1e	0.23656508
143	0xbe92f000	-0.2869873
144	0xbe2ade1a	-0.16686288
145	0x3cc44f0d	0.023963476
146	0x3e7171ad	0.2357852
147	0xbe71cf32	-0.23614195
148	0xbd9956f2	-0.074872866
149	0x3d61f9d2	0.055169888
150	0xbd29c1c4	-0.041444555
151	0xbe79331b	-0.24335901
152	0x3e8daffe	0.27673334
153	0x3d2eedfe	0.042707436
154	0xbcf2e214	-0.029648818
155	0xbcb93f1c	-0.0226131
156	0x3e0d069f	0.13772057
157	0xbe0dfbfe	-0.13865659
158	0x3df1db5b	0.11809417
159	0x3e4a1985	0.19736297
160	0x3de54e69	0.11196596
161	0x3de762e6	0.1129816
162	0xbddb22af	-0.10699975
163	0xbd35da58	-0.044397682
164	0x3b3b1e7c	0.0028552106
165	0xbe2eb94e	-0.17062876
166	0xbc8b0738	-0.016971216
167	0x3dc5c1ba	0.09656091
168	0x3dd83ebb	0.1055884
169	0xbdb9b763	-0.09068181
170	0x3e82e8fa	0.25568372
171	0x3e8b64fe	0.27225488
172	0x3d9d7adb	0.076894484
173	0x3e312f19	0.17303123
174	0xbd3a6088	-0.045502216
175	0xbe7ed619	-0.2488636
176	0xbe8fedf0	-0.2811122
177	0xbe1374be	-0.14400002
178	0xbdddaea6	-0.10824327
179	0x3ce68f47	0.028144492
180	0xbe0a715a	-0.13519803
181	0x3eb74dd5	0.3580157
182	0xbccdebe8	-0.025136903
183	0xbda80c84	-0.08205512
184	0x3e4a4168	0.19751513
185	0x3d93cd0b	0.07216843
186	0xbcc71f7c	-0.024307005
187	0xbe83784a	-0.2567771
188	0x3d217221	0.039415482
189	0xbda0a036	-0.07843058
190	0x3e83ad81	0.2571831
191	0xbe77668f	-0.24160217
192	0xbe350a9f	-0.17679833
193	0xbda4ea4b	-0.080525
194	0xbdb8bbdb	-0.090202056
195	0xbd706a35	-0.058695037
196	0xbded33e2	-0.115821615
197	0xbd4599c3	-0.04824234
198	0xbdf8a237	-0.12140315
199	0xbdce1549	-0.100626536

fc2.bias f4 [10]
0	0xbe207212	-0.15668514
1	0x3d4fa117	0.050690737
2	0xbdddedc5	-0.108363666
3	0xbe0548ff	-0.13016127
4	0x3dd122f5	0.10211746
5	0x3e2b8bff	0.16752623
6	0xbe1c4cb1	-0.1526363
7	0x3cec4ab4	0.028844215
8	0xbd9a02f6	-0.07520096
9	0x3deb4dbf	0.11489438
