models/mnist_model_20241116_221354.pth (torch, 28656 bytes, 8 tensors)

conv1.weight f4 [4, 1, 3, 3]
-0.3235097 0.01931122 0.29288992 0.3429697 0.19878235 0.23359163 0.31071794 0.099245355
0.1804448 -0.18892106 0.086127646 0.20825419 0.5404691 0.598741 0.29494965 0.40416852
0.43128747 0.53846765 0.46197414 0.29348463 0.41351497 -0.24021803 0.33729637 -0.07232511
-0.6901291 -0.5166889 -0.39362338 0.29902303 0.48882452 0.47416738 -0.40623838 0.15580207
0.18914683 -0.37930235 0.24792252 0.16257371
00000000: 10a3 a5be 9032 9e3c abf5 953e b999 af3e
00000010: 9a8d 4b3e a532 6f3e 6c16 9f3e 2641 cb3d
00000020: 86c6 383e 8674 41be b163 b03d 9640 553e
00000030: 2f5c 0a3f 1747 193f a403 973e 2def ce3e
00000040: b6d1 dc3e 04d9 093f e087 ec3e 9e43 963e
00000050: 3cb8 d33e b7fb 75be 1cb2 ac3e 301f 94bd
00000060: 4dac 30bf b945 04bf 0189 c9be 8c19 993e
00000070: 3547 fa3e 11c6 f23e 7afe cfbe 948a 1f3e
00000080: b5af 413e eb33 c2be 67df 7d3e b979 263e

conv1.bias f4 [4]
0.3853584 0.10415517 -0.08828792 0.048409056
00000000: b24d c53e 4e4f d53d 4cd0 b4bd 9348 463d

conv2.weight f4 [8, 4, 3, 3]
0.13454476 0.026387885 0.23391284 -0.051875424 -0.08432565 0.078216486 0.14819422 0.16111025
-0.06435576 -0.106498525 -0.11806214 0.18688229 -0.2750836 0.06728108 0.017715523 -0.006210679
0.13931699 0.070484065 -0.05804254 -0.014029888 -0.35596976 -0.19197403 -0.16059133 -0.28675434
-0.27754095 -0.26431972 -0.3603385 0.2323689 0.093395 0.28346986 0.026792228 0.26766184
0.30577737 -0.05628205 0.029163502 0.04675405 -0.08095276 -0.056724247 -0.10703193 0.04995959
0.09656838 0.13202599 0.049973615 0.18365994 -0.076249346 -0.09756767 -0.016061723 0.09740375
-0.21953839 -0.08874387 -0.0665595 -0.12563609 0.114817984 0.1489709 0.28876176 -0.08798871
-0.015956145 -0.02762044 -0.077265024 -0.10033616 -0.13418454 -0.092372335 -0.16912483 0.37427288
0.30985442 0.025463438 0.20281042 0.29870024 0.27269277 0.15295167 0.15628406 0.14902224
0.2294671 0.13755162 0.19726408 0.097279966 -0.047261596 0.14490396 -0.29343766 -0.21708813
-0.037851423 0.025143895 0.22643575 0.09556121 -0.040962785 0.04019816 0.19750549 -0.20611191
-0.26447678 -0.23750672 0.3334434 0.07405755 0.039382007 0.29486892 0.2665068 0.090017244
0.30235025 0.41599983 0.24262054 -0.08412287 -0.1875196 -0.0763073 0.12038469 0.1505232
0.05041811 0.076879784 0.15610512 0.27123174 -0.123163275 0.26748058 0.27651486 0.18766971
0.21378781 0.18451929 0.25314453 -0.020154787 -0.16156362 -0.1492312 0.15469414 0.2114696
0.10281629 0.060481824 -0.005039478 0.08105716 0.044762973 -0.20873684 -0.45276365 -0.493053
-0.12200651 -0.32004297 -0.16363198 -0.11620754 -0.32871208 -0.035707038 -0.19231947 -0.21810538
-0.050752837 0.19842148 0.06032346 0.1254985 0.010048413 -0.062477123 -0.13410859 0.09371516
0.1966311 -0.17491375 -0.22041994 0.06713676 0.047040135 0.26580855 0.24097374 0.04029692
0.33248225 0.012611231 -0.25398204 -0.29340243 0.16596562 0.23212351 0.08865047 0.21644941
0.17779322 0.11586441 -0.008937594 -0.2124168 -0.11145931 -0.10857129 -0.12504546 0.039338425
0.19110557 0.17233704 0.14074823 -0.17420958 -0.14638653 -0.068135254 -0.19880082 -0.36043164
-0.19831887 0.19141096 -0.10142185 0.15830238 -0.052296642 0.21119794 0.0014141997 -0.06451684
0.12840712 0.114518866 0.1918423 0.20969188 0.17714423 -0.06631149 0.0042432803 -0.034451846
-0.12460549 0.091945395 -0.04874844 -0.04061239 0.20020403 0.10004397 -0.085366756 0.006814119
-0.17559385 -0.04602147 -0.14452352 -0.09010763 -0.14991145 0.038342122 -0.08578385 -0.025771374
0.138082 0.31841382 -0.0011088904 0.005450612 0.2509191 0.023668012 -0.13364221 0.18472917
-0.028928315 -0.14738327 -0.3060073 0.16509536 0.14592785 -0.002374493 0.0583475 0.052244358
0.14730017 -0.32577264 -0.06926123 -0.31307194 0.08328855 -0.038972933 -0.070463255 0.19387478
0.2325907 0.2717281 0.115836464 0.27440414 0.47612455 0.100570984 0.41464812 0.2615577
-0.09670092 -0.06988658 -0.122712836 0.05445525 0.2652569 0.13690986 -0.28292227 -0.20775998
-0.2687781 -0.023783654 -0.052777577 0.008347247 0.12566759 0.03607553 0.09415224 0.16086029
00000000: 1ac6 093e 682b d83c d986 6f3e 537b 54bd
00000010: edb2 acbd f72f a03d 3ac0 173e 16fa 243e
00000020: f4cc 83bd e61b dabd 90ca f1bd 125e 3f3e
00000030: c2d7 8cbe aaca 893d 2520 913c f482 cbbb
00000040: 1da9 0e3e f359 903d 04be 6dbd 9edd 65bc
00000050: ab41 b6be d794 44be 0e72 24be 77d1 92be
00000060: d919 8ebe ea54 87be 4a7e b8be 1df2 6d3e
00000070: e145 bf3d f622 913e 607b db3c f90a 893e
00000080: da8e 9c3e 0288 66bd 4ce8 ee3c 2d81 3f3d
00000090: 90ca a5bd af57 68bd 8e33 dbbd 6da2 4c3d
000000a0: a5c5 c53d d231 073e 22b1 4c3d 5a11 3c3e
000000b0: 9e28 9cbd 8fd1 c7bd e093 83bc 9e7b c73d
000000c0: acce 60be 59bf b5bd 5950 88bd bfa6 00be
000000d0: b125 eb3d d48b 183e 95d8 933e 6d33 b4bd
000000e0: 76b6 82bc 4344 e2bc 203d 9ebd 0b7d cdbd
000000f0: ac67 09be b52d bdbd 0f2f 2dbe b2a0 bf3e
00000100: 3da5 9e3e b398 d03c 89ad 4f3e 3def 983e
00000110: 639e 8b3e 5d9f 1c3e ee08 203e 4999 183e
00000120: 6cf9 6a3e 55da 0c3e 98ff 493e b83a c73d
00000130: 6095 41bd b461 143e 763d 96be 5a4c 5ebe
00000140: 180a 1bbd 92fa cd3c c6de 673e 98b5 c33d
00000150: 98c8 27bd d3a6 243d e13e 4a3e 000f 53be
00000160: 8069 87be f634 73be 18b9 aa3e 7cab 973d
00000170: 074f 213d 0ff9 963e 9473 883e f65a b83d
00000180: a7cd 9a3e eefd d43e 8571 783e 9c48 acbd
00000190: 2305 40be 0047 9cbd 408c f63d c122 1a3e
000001a0: 3883 4e3d 2673 9d3d 05da 1f3e e3de 8a3e
000001b0: 073d fcbd 37f3 883e 5b93 8d3e 7d2c 403e
000001c0: 31eb 5a3e a0f2 3c3e 299c 813e a71b a5bc
000001d0: ef70 25be 10d0 18be 2468 1e3e 7d8b 583e
000001e0: 5991 d23d cabb 773d 3522 a5bb 4c01 a63d
000001f0: 6159 373d 1cbf 55be a3d0 e7be 7171 fcbe
00000200: 8dde f9bd acdc a3be 248f 27be 38fe edbd
00000210: f34c a8be 8b41 12bd 65ef 44be 0457 5fbe
00000220: 35e2 4fbd 002f 4b3e bb15 773d ae82 003e
00000230: 19a2 243c 03e8 7fbd c353 09be bced bf3d
00000240: aa59 493e 971c 33be c4b5 61be ff7e 893d
00000250: 28ad 403d 0f18 883e d2c1 763e 620e 253d
00000260: 1d3b aa3e 569f 4e3c ef09 82be d838 96be
00000270: e4f2 293e c9b1 6d3e 618e b53d eaa4 5d3e
00000280: 6d0f 363e 524a ed3d fc6e 12bc ca83 59be
00000290: c744 e4bd a05a debd eb0b 00be 5421 213d
000002a0: 2eb1 433e 1f79 303e 4e20 103e ff63 32be
000002b0: 5ae6 15be 7f8a 8bbd 7192 4bbe 7f8a b8be
000002c0: 1a14 4bbe 3c01 443e 42b6 cfbd 051a 223e
000002d0: 0135 56bd 4644 583e ab5c b93a 6821 84bd
000002e0: 287d 033e de88 ea3d 4f72 443e 78b9 563e
000002f0: 4c65 353e 52ce 87bd 370b 8b3b 611d 0dbd
00000300: 2a31 ffbd de4d bc3d 72ac 47bd 2d59 26bd
00000310: 4902 4d3e dae3 cc3d c4d4 aebd f948 df3b
00000320: e0ce 33be 0281 3cbd f9fd 13be 598a b8bd
00000330: 6382 19be a10c 1d3d 71af afbd 7d1e d3bc
00000340: 5e65 0d3e 2307 a33e 3058 91ba 0c9b b23b
00000350: 7878 803e 6be3 c13c 81d9 08be a529 3d3e
00000360: 13fb ecbc a4eb 16be fdac 9cbe c20e 293e
00000370: 1c6e 153e 629d 1bbb cafd 6e3d 2efe 553d
00000380: dbd5 163e accb a6be d5d8 8dbd f74a a0be
00000390: 3093 aa3d 15a2 1fbd 0a4f 90bd 1c87 463e
000003a0: 422c 6e3e f21f 8b3e ab3b ed3d b37e 8c3e
000003b0: 99c6 f33e 29f8 cd3d c24c d43e e4ea 853e
000003c0: 220b c6bd b220 8fbd de50 fbbd 780c 5f3d
000003d0: c1cf 873e 1932 0c3e 30db 90be 08bf 54be
000003e0: 489d 89be f0d5 c2bc 4d2d 58bd e4c2 083c
000003f0: 01af 003e efc3 133d e4d2 c03d 8fb8 243e

conv2.bias f4 [8]
0.0058260756 -0.06127068 -0.102012485 -0.026130516 -0.044972174 0.045483407 0.066090666 0.19302805
00000000: aae8 be3b f7f6 7abd eceb d0bd aa0f d6bc
00000010: be34 38bd cf4c 3a3d 8b5a 873d 25a9 453e

fc1.weight f4 [20, 288]
0.0029383532 -0.042816155 0.049673826 -0.03277869 0.04523313 0.004562071 -0.11022549 -0.008440118
0.014762402 -0.06788922 -0.019836435 -0.091513656 -0.09325841 0.05294262 -0.019743755 -0.04221693
0.0005030055 -0.07966692 0.0038722532 0.080014095 0.046775404 0.1055487 -0.049908735 -0.020281613
0.027568368 0.018126916 0.069792494 -0.04082965 0.016266521 0.00951 -0.081472985 -0.053805597
0.022634644 0.011119787 -0.019017128 0.09514293 -0.038675684 -0.049206708 0.01750055 -0.036038157
-0.040804368 0.038168952 -0.0682588 0.035043906 0.0693182 -0.05179692 -0.025998583 -0.0016378794
-0.053233996 -0.038520314 -0.042023063 -0.056657366 -0.07724638 -0.024408838 0.0038336562 0.064858705
0.031572096 0.041531656 -0.07949916 -0.026745336 -0.014984202 0.0704548 0.08741905 0.02232978
-0.027193496 -0.0026922473 -0.05146713 0.010138236 -0.07008194 0.014185463 0.09888073 0.08537512
-0.037300177 0.029845282 0.026218364 0.027583515 0.108030386 0.03225722 -0.14685929 -0.1339449
-0.050751794 -0.059295166 0.023638189 0.031390443 -0.08202352 0.0368176 -0.014142168 -0.019967068
-0.07434434 -0.04673017 0.043566726 -0.013432272 0.10136842 0.05218631 -0.12247835 0.049726807
-0.016577186 0.07142769 0.01674163 -0.0046090344 0.059649494 0.16676769 -0.047805175 -0.004101566
-0.051489204 -0.0630658 0.050932255 0.02985412 -0.00662222 0.057417657 0.038570624 -0.034205798
0.021476034 0.03660347 -0.04219791 -0.0013738647 0.060551625 -0.008239073 -0.06876229 0.01746335
-0.017914545 -0.012255127 -0.049739577 0.0121194115 -0.027083686 -0.0015027722 0.014580009 0.037754074
0.030198632 0.07519957 0.051327027 0.066254064 -0.030623414 -0.005652974 0.06559335 0.002492268
-0.053042054 -0.012308521 -0.03345938 0.002043868 -0.057075568 -0.113167785 -0.021402022 -0.011067802
-0.112364694 -0.0018719428 -0.052401178 -0.052442316 0.047323544 0.014704464 -0.13359357 -0.07357556
-0.018409597 -0.06724494 -0.001432143 -0.010089092 -0.037339758 -0.052141234 -0.04189476 0.056810502
0.00059326465 -0.006462245 -0.060496546 0.0382175 0.032614697 0.04008181 -0.08743483 0.07619712
-0.0935117 0.05809504 -0.053326968 0.0053775935 0.10089159 0.11073689 0.0018163108 0.004392907
-0.14959699 -0.048717365 0.062379226 0.10711508 -0.049255542 0.020095754 -0.03410243 0.04797144
0.04051557 0.04573832 -0.05266394 0.042930048 0.016604472 -0.012530874 -0.019276317 -0.04185257
-0.012594638 0.02053131 -0.0072867475 0.062177397 -0.064611875 0.009363536 0.052119546 0.063343704
-0.003597474 0.08922044 -0.040441483 -0.00044736906 0.03376737 0.00551532 0.03772207 0.026485976
0.055320404 0.035003707 -0.07099908 -0.02166298 -0.058540955 -0.036141913 -0.039593864 0.074686974
-0.04101359 -0.008959873 -0.024235817 0.030832456 -0.016393026 0.005019689 -0.077363186 -0.06082718
-0.045870446 0.010400498 -0.027318958 0.028050158 0.03532397 0.018764306 0.07351893 0.07535919
0.06028742 0.15131287 -0.06697694 0.04196493 0.05163935 -0.051342223 -0.064480454 0.09764752
0.0090020755 0.050268013 -0.05313091 -0.010695907 0.11096305 0.24406657 0.013916477 0.09050241
-0.10535963 -0.020436997 0.18402906 0.074870646 -0.0150627 0.014644394 0.098982796 0.0147001445
00000000: 6391 403b fe5f 2fbd c876 4b3d f342 06bd
00000010: 6046 393d 6d7d 953b e7bd e1bd 6c48 0abc
00000020: 00de 713c 8109 8bbd 0580 a2bc 836b bbbd
00000030: 44fe bebd 5cda 583d a8bd a1bc a9eb 2cbd
00000040: 21dc 033a 6928 a3bd a1c5 7d3b 6ede a33d
00000050: 9197 3f3d eb29 d83d 1a6d 4cbd a025 a6bc
00000060: 0fd7 e13c e67e 943c 5eef 8e3d fe3c 27bd
00000070: 5e41 853c d5cf 1b3c 4fdb a6bd 4263 5cbd
00000080: 4a6c b93c c42f 363c cfc9 9bbc 4cda c23d
00000090: 656a 1ebd f98c 49bd 505d 8f3c bf9c 13bd
000000a0: 7b22 27bd 0c57 1c3d 45cb 8bbd 338a 0f3d
000000b0: b3f6 8d3d 0229 54bd fbfa d4bc 1dae d6ba
000000c0: e40b 5abd 7ac7 1dbd 6020 2cbd 8e11 68bd
000000d0: 5a33 9ebd 0bf5 c7bc 143e 7b3b a4d4 843d
000000e0: be51 013d 191d 2a3d 75d0 a2bd 0919 dbbc
000000f0: 4c80 75bc 9b4a 903d c208 b33d f1ec b63c
00000100: e5c4 debc 6a70 30bb 33cf 52bd d81a 263c
00000110: 1f87 8fbd 256a 683c fb81 ca3d 27d9 ae3d
00000120: 12c8 18bd 187e f43c e5c7 d63c d3f6 e13c
00000130: 093f dd3d 2620 043d 4862 16be da28 09be
00000140: 1de1 4fbd 7ddf 72bd e0a4 c13c 4493 003d
00000150: f2fb a7bd 0dce 163d 8db4 67bc fa91 a3bc
00000160: d841 98bd 2268 3fbd 0673 323d 0813 5cbc
00000170: 3f9a cf3d 50c1 553d eed5 fabd 56ae 4b3d
00000180: e1cc 87bc ae48 923d be25 893c 6207 97bb
00000190: 0753 743d 26c5 2a3e 5ccf 43bd 6e66 86bb
000001a0: 58e6 52bd a428 81bd 579e 503d a190 f43c
000001b0: 35ff d8bb c72e 6b3d 3bfc 1d3d 611b 0cbd
000001c0: 82ee af3c 85ed 153d b7d7 2cbd 4013 b4ba
000001d0: fb04 783d 2dfd 06bc 3ed3 8cbd 4d0f 8f3c
000001e0: 86c1 92bc bac9 48bc babb 4bbd 7f90 463c
000001f0: 9bde ddbc abf8 c4ba fde0 6e3c 04a4 1a3d
00000200: 1f63 f73c 3b02 9a3d 4a3c 523d 36b0 873d
00000210: f4dd fabc 953c b9bb ce55 863d 5255 233b
00000220: a042 59bd aea9 49bc b40c 09bd 6af2 053b
00000230: 12c8 69bd 83c4 e7bd 4b53 afbc ba55 35bc
00000240: 761f e6bd fa5b f5ba 9ea2 56bd c1cd 56bd
00000250: 55d6 413d feea 703c c1cc 08be c8ae 96bd
00000260: b9cf 96bc b7b7 89bd bfb6 bbba b84c 25bc
00000270: 93f1 18bd 0c92 55bd d799 2bbd 21b2 683d
00000280: 5185 1b3a 3dc1 d3bb 3acb 77bd f489 1c3d
00000290: fd96 053d d32c 243d 0811 b3bd 3c0d 9c3d
000002a0: 1083 bfbd 11f5 6d3d 616d 5abd 8636 b03b
000002b0: 40a0 ce3d 06ca e23d 4711 ee3a 60f2 8f3b
000002c0: f42f 19be dc8b 47bd 5c81 7f3d 275f db3d
000002d0: 2ec0 49bd da9f a43c fdae 0bbd b37d 443d
000002e0: a8f3 253d 1b58 3b3d 25b6 57bd 6bd7 2f3d
000002f0: 1a06 883c 4c4e 4dbc 5ee9 9dbc 9a6d 2bbd
00000300: be59 4ebc 4731 a83c abc5 eebb baad 7e3d
00000310: 3b53 84bd 8469 193c 4e7b 553d 58ba 813d
00000320: 99c3 6bbb 35b9 b63d f8a5 25bd dc8c eab9
00000330: a74f 0a3d dcb9 b43b 7582 1a3d 1ef9 d83c
00000340: a697 623d 0c60 0f3d f767 91bd 9076 b1bc
00000350: a4c8 6fbd 8b09 14bd 2d2d 22bd 7cf5 983d
00000360: defd 27bd 6ecc 12bc 318a c6bc 5994 fc3c
00000370: ab4a 86bc 347c a43b 9770 9ebd ec25 79bd
00000380: a6e2 3bbd da66 2a3c 02cc dfbc 72c9 e53c
00000390: deaf 103d 9ab7 993c 1891 963d eb55 9a3d
000003a0: f1ef 763d c3f1 1a3e 352b 89bd 6be3 2b3d
000003b0: c883 533d 394c 52bd 540e 84bd 6cfb c73d
000003c0: 717d 133c d5e5 4d3d cc9f 59bd e33d 2fbc
000003d0: 9840 e33d 96ec 793e ef01 643c 5459 b93d
000003e0: cac6 d7bd 7d6b a7bc 1d72 3c3e c855 993d
000003f0: 8bc9 76bc 0aef 6f3c 7eb7 ca3d e0d8 703c

fc1.bias f4 [20]
0.014910063 -0.012329609 0.017537119 0.027520379 -0.037428778 0.02700456 0.025040792 -0.063430995
-0.0050167358 0.055920802 -0.06201508 0.11129844 -0.0004669804 0.025936363 0.0008968363 -0.1229262
0.032990225 -0.056966487 0.0157573 0.04542973
00000000: 5649 743c 2102 4abc 01aa 8f3c 6b72 e13c
00000010: eb4e 19bd ab38 dd3c 5922 cd3c 1ce8 81bd
00000020: 6e63 a4bb 360d 653d 8603 7ebd 70f0 e33d
00000030: 0cd5 f4b9 7f78 d43c aa19 6b3a bbc0 fbbd
00000040: c220 073d b155 69bd 7415 813c 8614 3a3d

fc2.weight f4 [10, 20]
-0.31515914 -0.18374899 -0.26192245 -0.28375185 0.20848222 -0.00049820764 0.18062693 0.17028333
0.12520921 -0.21739706 -0.14971817 -0.123797014 0.11795409 -0.028925369 -0.057470594 -0.19152343
0.2107082 0.2224171 0.20933315 0.22172272 -0.045740936 0.15038294 0.19199173 -0.27052703
0.11910701 0.15994053 -0.050101116 0.1871738 0.03833282 0.20152263 0.11602538 -0.052405406
0.2558944 -0.015769416 -0.045396578 -0.30264682 0.12304397 -0.30451778 -0.11607288 -0.14292276
0.20556244 -0.10822996 0.14509597 -0.12741232 -0.1081964 -0.1884941 0.069694996 -0.039761975
0.119934335 0.0053698 0.021496039 -0.01434613 0.1321673 0.1279553 -0.15248814 0.18584579
-0.20411517 0.032341786 -0.1586104 -0.116409115 -0.2456878 -0.31303787 -0.1786681 0.029827196
0.024931781 -0.0070252866 0.0711219 -0.11049522 -0.043537516 -0.056666885 -0.09891089 -0.2606249
0.17050885 0.079241276 -0.16072384 0.2638107 0.18594033 -0.17669764 -0.107137315 -0.095954455
0.05822502 0.045942683 0.22773416 0.23567452 -0.18297184 0.17800412 0.018485213 0.22570536
0.12747262 -0.21378727 -0.21280092 -0.14148721 -0.2759646 -0.1515167 0.0077334614 -0.15076376
-0.100032024 0.0062668165 -0.1544131 -0.049015738 0.12343317 0.05362328 -0.35722905 0.00033719698
-0.20282839 -0.10857204 0.23849702 0.15309107 -0.15706472 0.028217096 -0.047359053 -0.1494979
-0.3285843 0.06112852 -0.06488902 0.17834575 0.1626284 -0.16321939 0.022055116 0.14233516
0.10409285 0.21834396 0.0006506301 -0.08066381 0.09494055 -0.25542432 0.06714501 0.15330726
-0.027541606 -0.26561046 0.14613527 -0.22359042 -0.33420497 0.19516194 0.15602945 -0.122302204
0.32484645 0.13402031 0.09455166 -0.12540755 -0.14095633 -0.22450298 -0.17180738 0.17567635
-0.028551256 0.005097394 0.09663415 -0.13034618 0.16334881 0.28788507 0.12514606 0.2969274
0.06590881 -0.033120465 -0.12069114 -0.16236934 -0.27732992 0.1765306 -0.15694864 -0.18450868
-0.29148448 0.1861127 0.097488895 -0.19472562 -0.06618996 0.20150718 -0.10126351 -0.13047843
-0.21023971 0.1942634 0.09864084 -0.25785083 -0.2527999 -0.0888872 0.17460631 0.11640626
0.087912984 0.0827056 0.07298437 -0.1781179 0.15939665 0.19363426 -0.30182528 0.19317317
0.013188751 0.06884161 -0.19651318 -0.074743606 -0.14115128 -0.1702871 -0.19201437 -0.18516865
0.21155752 0.1316787 0.025986565 0.122641824 -0.0486842 -0.0026641877 -0.0944463 0.09150327
00000000: 8a5c a1be b228 3cbe b31a 86be ec47 91be
00000010: 5d7c 553e 269a 02ba 44f6 383e c15e 2e3e
00000020: d836 003e 569d 5ebe b84f 19be 4a89 fdbd
00000030: ea91 f13d e5f4 ecbc 4966 6bbd b81e 44be
00000040: e4c3 573e 4fc1 633e 6e5b 563e 480b 633e
00000050: d95a 3bbd fcfd 193e 7b99 443e 8582 8abe
00000060: 60ee f33d 73c7 233e d436 4dbd 7daa 3f3e
00000070: e002 1d3d f35b 4e3e b79e ed3d 0da7 56bd
00000080: 9704 833e dd2e 81bc c3f1 39bd 86f4 9abe
00000090: 7afe fb3d c1e9 9bbe 9eb7 edbd 585a 12be
000000a0: f67e 523e aba7 ddbd 0a94 143e 6078 02be
000000b0: 1396 ddbd 9904 41be 40bc 8e3d 74dd 22bd
000000c0: 22a0 f53d 26f5 af3b 7618 b03c 080c 6bbc
000000d0: dd56 073e b706 033e da25 1cbe 5c4e 3e3e
000000e0: 9103 51be d278 043d c46a 22be e767 eebd
000000f0: 9595 7bbe 8046 a0be c5f4 36be 2a58 f43c
00000100: bc3d cc3c 6034 e6bb 5ca8 913d 514b e2bd
00000110: 6554 32bd 891b 68bd cb91 cabd a070 85be
00000120: df99 2e3e 4049 a23d ca94 24be 3212 873e
00000130: 2467 3e3e 3af0 34be cf6a dbbd c583 c4bd
00000140: 5c7d 6e3d 652e 3c3d 2533 693e a954 713e
00000150: f85c 3bbe b646 363e 4d6e 973c 4e1f 673e
00000160: 2f88 023e 0deb 5abe 7ce8 59be 06e2 10be
00000170: 3b4b 8dbe 3227 1bbe fa68 fd3b d161 1abe
00000180: 97dd ccbd de59 cd3b 781e 1ebe bac4 48bd
00000190: 88ca fc3d 16a4 5b3d bae6 b6be d0c9 b039
000001a0: 3fb2 4fbe 055b debd 9038 743e e8c3 1c3e
000001b0: 93d5 20be 8a27 e73c 91fb 41bd fa15 19be
000001c0: 343c a8be e661 7a3d 89e4 84bd 45a0 363e
000001d0: 0f88 263e fc22 27be eeac b43c 4fc0 113e
000001e0: a22e d53d 8f95 5f3e 0c8f 2a3a 1133 a5bd
000001f0: 3170 c23d fac6 82be 5383 893d 94fc 1c3e
00000200: ef9e e1bc 18fe 87be 7ca4 153e e3f4 64be
00000210: ea1c abbe 88d8 473e 2fc6 1f3e 9479 fabd
00000220: 4652 a63e 9f3c 093e 4da4 c13d d66a 00be
00000230: db56 10be 1ce4 65be 46ee 2fbe 80e4 333e
00000240: 53e4 e9bc 0a08 a73b 20e8 c53d 7879 05be
00000250: e944 273e ac65 933e 4a26 003e de06 983e
00000260: 33fb 863d 53a9 07bd eb2c f7bd 2644 26be
00000270: 30fe 8dbe 70c4 343e 25b7 20be d8ef 3cbe
00000280: 743d 95be 5494 3e3e 42a8 c73d 2766 47be
00000290: 9a8e 87bd e657 4e3e 3e63 cfbd 239c 05be
000002a0: 1449 57be fcec 463e 3504 ca3d 0605 84be
000002b0: fd6e 81be 7e0a b6bd ffcb 323e 6866 ee3d
000002c0: b90b b43d 8e61 a93d d478 953d 8a64 36be
000002d0: e038 233e 0f48 463e d888 9abe 30cf 453e
000002e0: a215 583c d4fc 8c3d c03a 49be 2d13 99bd
000002f0: f689 10be be5f 2ebe 6a9f 44be da9c 3dbe
00000300: 89a2 583e c8d6 063e c7e1 d43c a32b fb3d
00000310: 1569 47bd a799 2ebb 106d c1bd 1166 bb3d

fc2.bias f4 [10]
0.041934952 -0.051323693 0.16348337 -0.087984085 -0.085802115 0.016792338 -0.16513692 -0.07173432
-0.22908343 -0.17517212
00000000: fcc3 2b3d cb38 52bd 2f68 273e 0031 b4bd
00000010: 05b9 afbd 1690 893c a719 29be 71e9 92bd
00000020: d994 6abe 5260 33be
