models/mnist_model_20241116_220933.pth (torch, 153648 bytes, 8 tensors)

conv1.weight f4 [4, 1, 3, 3]
0	0x3ec26291	0.37965825
1	0x3e7377d8	0.23776186
2	0xbe28e0ef	-0.16492055
3	0x3eaab685	0.33342376
4	0x3d927756	0.07151668
5	0x3e9a4e08	0.30137658
6	0xbe13d21a	-0.14435616
7	0xbe8d41c0	-0.27589226
8	0xbd3225c0	-0.043493032
9	0xbe5e3063	-0.21698146
10	0x3e0a6bd6	0.13517699
11	0x3e409996	0.18808588
12	0x3eb34656	0.350146
13	0x3e28ad5b	0.1647238
14	0x3e92cb33	0.28670654
15	0xbd796388	-0.060885936
16	0xbdfd7a7f	-0.1237688
17	0xbeeebddc	-0.46629226
18	0x3d22b842	0.039726503
19	0x3edfe397	0.43728325
20	0xbe9bdf79	-0.30443934
21	0x3ebd7e61	0.37010482
22	0x3e209cda	0.15684834
23	0xbe889282	-0.26674277
24	0x3e9d0ec8	0.3067534
25	0x3e3a770b	0.18209474
26	0x3ecfa52e	0.4055571
27	0xbda9256c	-0.08259091
28	0xbe3e54eb	-0.18587081
29	0xbe2227cd	-0.15835495
30	0x3dc0d2e5	0.09415225
31	0x3ee670de	0.45007986
32	0x3eadbed2	0.33934647
33	0x3da9e590	0.08295739
34	0x3f024491	0.50885874
35	0x3db44f27	0.088041596

conv1.bias f4 [4]
0	0x3e7dbc96	0.24778971
1	0x3e1033b7	0.14082228
2	0xbe12b74e	-0.14327738
3	0x3d29de41	0.041471723

conv2.weight f4 [8, 4, 3, 3]
0	0x3e7902b0	0.24317431
1	0x3e41e13f	0.18933581
2	0x3e4e0e78	0.20122707
3	0xbcdd2758	-0.0269963
4	0x3cba52fa	0.022744644
5	0x3c0eae3d	0.008708534
6	0xbb87acc3	-0.004140468
7	0xbdfeb38c	-0.124365896
8	0x3e0a490c	0.13504428
9	0x3e4ef258	0.20209634
10	0x3d856b86	0.06514649
11	0x3eaa8fc2	0.33312804
12	0x3dd55768	0.10417062
13	0x3e8deed5	0.27721277
14	0x3eb8e4fb	0.36112198
15	0xbdca19fb	-0.09868237
16	0x3dea24e2	0.11432816
17	0x3d01a1a6	0.0316483
18	0x3c0e465f	0.00868377
19	0xbdac80e0	-0.084230185
20	0x3d9fac08	0.07796484
21	0xbe659dfe	-0.2242355
22	0xbdd7ddc3	-0.105403446
23	0xbdc95af4	-0.09831801
24	0xbe6c9496	-0.23103556
25	0x3be94199	0.0071184156
26	0xbdeabe0d	-0.114620306
27	0xbd3ce3f1	-0.04611582
28	0xbdac118e	-0.08401786
29	0xbae7097d	-0.0017626729
30	0xbda65aba	-0.081227735
31	0xbba4b929	-0.0050269556
32	0xbe09b599	-0.1344818
33	0xbe9efc87	-0.31052038
34	0xbea45d4b	-0.32102427
35	0xbe0a1d4b	-0.13487737
36	0x3e2f2de3	0.17107348
37	0x3e0d7cb4	0.13817102
38	0x3dd0cac9	0.10194928
39	0xbd67254f	-0.056432065
40	0x3e429f37	0.19006048
41	0x3d869f0c	0.065733045
42	0xbd99908e	-0.07498275
43	0xbd97fee3	-0.07421663
44	0x3e2e570b	0.17025392
45	0xbe300702	-0.17190173
46	0x3d5cf564	0.05394496
47	0x3e023277	0.12714563
48	0xbc297773	-0.01034342
49	0xbe296089	-0.16540731
50	0x3ba98d7e	0.005174338
51	0x3dc4c9df	0.09608816
52	0xbb7e9b7a	-0.0038849995
53	0xbd821c90	-0.06353104
54	0x3c921255	0.017831007
55	0x3cb6ece1	0.02232975
56	0xbdc66d44	-0.096888095
57	0x3d5140b5	0.0510871
58	0x3d3918ba	0.045189597
59	0x3d85efc6	0.06539874
60	0xbe1fc2cd	-0.15601654
61	0xbe05d48e	-0.13069364
62	0xbe39df60	-0.18151617
63	0x3e33b923	0.17551093
64	0x3e376b94	0.17912132
65	0x3c82cb20	0.015965998
66	0x3dc28de1	0.094997175
67	0x3dd7b2a8	0.10532123
68	0xbccaa5a1	-0.024737181
69	0xbde1a55b	-0.11017867
70	0x3cd857af	0.026408998
71	0xbba583d2	-0.0050511146
72	0xbe1cb005	-0.15301521
73	0xbe59a006	-0.2125245
74	0xbe3771db	-0.17914526
75	0x3d9aac07	0.07552343
76	0xbeb146db	-0.3462437
77	0xbd30cdda	-0.043165065
78	0x3d71a51c	0.05899535
79	0xbd97bcbe	-0.074090466
80	0xbe560fc2	-0.20904449
81	0x3e40fc56	0.18846259
82	0x3e4ab2e7	0.19794808
83	0x3e1f7533	0.15572052
84	0xbe862473	-0.26199684
85	0xbd9f96a5	-0.07792405
86	0xbe562f52	-0.20916489
87	0x3e319b5a	0.17344418
88	0x3df75743	0.12077191
89	0x3dfa380d	0.12217722
90	0xbd0eb3e0	-0.03483951
91	0xbe465e9e	-0.19372031
92	0xbe96b6dd	-0.2943639
93	0x3e45a5fb	0.19301598
94	0x3e374acd	0.17899628
95	0xbdcf0381	-0.1010809
96	0x3e2f3fb9	0.17114152
97	0x3e856b92	0.26058632
98	0x3e021e15	0.12706788
99	0xbd8ad06c	-0.067780346
100	0xbd5615b5	-0.052266795
101	0xbe806ea2	-0.25084406
102	0xbd53cf19	-0.051711176
103	0xbd3c0308	-0.04590133
104	0x3e0293ac	0.12751645
105	0x3e2efa55	0.17087682
106	0x3deeaad5	0.116536774
107	0x3e336fd2	0.17523125
108	0x3e017ded	0.12645693
109	0x3de6684b	0.11250361
110	0xbd11b343	-0.035571348
111	0x3e052443	0.13002114
112	0x3e82705c	0.25476348
113	0x3cfaa484	0.030596025
114	0xbd7fb86e	-0.062431745
115	0xbd57c12c	-0.052674457
116	0x3e49cff1	0.1970823
117	0xbda041aa	-0.078250244
118	0x3c6962b9	0.014244729
119	0x3e471281	0.19440652
120	0x3e9f0296	0.3105666
121	0x3e5ed821	0.21762134
122	0x3eb35d1b	0.3503197
123	0x3e3b03f7	0.18263231
124	0x3d3c958a	0.04604105
125	0x3dd34ecd	0.103177644
126	0xbd604204	-0.054750457
127	0xbd4fe628	-0.050756603
128	0x3e04232d	0.12904043
129	0x3d52b512	0.051442213
130	0xbe2b7d54	-0.16747028
131	0xbe055f00	-0.13024521
132	0xbe60b15f	-0.21942662
133	0xbeac52ec	-0.33657014
134	0xbe5392f9	-0.20661534
135	0x3e683a08	0.22678387
136	0x3e845dc2	0.25852782
137	0x3e620d19	0.22075309
138	0xbc6ee897	-0.014581821
139	0x3dcfacd9	0.1014039
140	0xbdd68d03	-0.104761146
141	0xbe8ce097	-0.27515098
142	0xbe9fc4ef	-0.31204936
143	0xbeb9d4b9	-0.36295107
144	0x3d2aefe8	0.0417327
145	0x3e5c60c1	0.21521284
146	0xbdb8575f	-0.0900104
147	0x3d0c2f9f	0.034225103
148	0x3c4a3735	0.012342264
149	0x3ca62a1c	0.020283751
150	0x3e3a958a	0.18221107
151	0xbd846cd5	-0.064660706
152	0x3e1f20ab	0.15539806
153	0x3d840111	0.06445516
154	0xbde57bb8	-0.11205238
155	0x3a88996f	0.0010421703
156	0xbd4a11c9	-0.049333367
157	0xbdb0ed5d	-0.086390235
158	0xbd835e8c	-0.06414518
159	0x3cb2377d	0.021754974
160	0xbe192773	-0.14956455
161	0xbb983de4	-0.00464605
162	0x3dec6e38	0.1154446
163	0xbd988ab5	-0.07448331
164	0x3d02d6c3	0.031943094
165	0x3d02716b	0.031846445
166	0x3e3d40b7	0.18481718
167	0x3e15a2ed	0.14612933
168	0x3dde65d9	0.1085927
169	0x3de7aa4e	0.1131178
170	0x3db7e189	0.08978564
171	0x3dadff81	0.08495999
172	0x3cd6829d	0.026185328
173	0xbcd6c6d3	-0.026217854
174	0x3d8d61e5	0.069034375
175	0xbe157d1d	-0.14598508
176	0xbd87eb83	-0.06636717
177	0xbcd9bd69	-0.026579576
178	0x3e23daa3	0.16001372
179	0xbc7829bb	-0.015146668
180	0xbd1bc4eb	-0.038029592
181	0x3e8ad1bd	0.27113143
182	0xbc083ade	-0.008314816
183	0x3c7554d5	0.014973839
184	0x3e19d4a1	0.15022518
185	0xbc60b76b	-0.013715605
186	0x3e77ae1f	0.24187516
187	0x3d6bb2fd	0.057543743
188	0xbe204cd5	-0.15654309
189	0x3dd27b6b	0.10277446
190	0xbda0d9eb	-0.078540646
191	0xbe02b72b	-0.12765186
192	0x3e7c2ede	0.24627253
193	0xbe5b1e89	-0.21398367
194	0xbdf9b574	-0.121928126
195	0x3e18f7ba	0.1493825
196	0x3cb306e9	0.021853881
197	0xbe313f5a	-0.17309323
198	0x3e0bc020	0.13647509
199	0x3e68be01	0.2272873
200	0xbe1f2162	-0.15540078
201	0x3e634b41	0.22196676
202	0x3e308539	0.1723832
203	0xbe422f35	-0.1896332
204	0x3e47acda	0.19499531
205	0x3e16ba00	0.14719391
206	0xbe8ba4a6	-0.27274054
207	0x3e0f9fbc	0.14025778
208	0xbe0b71f4	-0.13617688
209	0xbeb2a19b	-0.3488892
210	0x3d8bdaa4	0.06828812
211	0xbdc89f35	-0.09795991
212	0xbe996595	-0.29960313
213	0xbda5610c	-0.08075151
214	0xbe90940c	-0.2823795
215	0xbee23bcd	-0.4418625
216	0x3df7228e	0.12067138
217	0x3ce7ddeb	0.02830406
218	0xbceb8409	-0.028749483
219	0x3d47652b	0.048680466
220	0x3e0e73d6	0.13911375
221	0x3babdc52	0.00524477
222	0xbe516af1	-0.20450951
223	0x3d395e03	0.045255672
224	0x3bef142d	0.0072961063
225	0xbdca85a9	-0.09888775
226	0xbea5e335	-0.32399908
227	0xbe0fab6e	-0.14030239
228	0x3cec08da	0.028812815
229	0xbea8d900	-0.32978058
230	0xbea3e12b	-0.32007727
231	0x3a83655c	0.0010024714
232	0x394dbf74	0.00019621645
233	0xbe846b14	-0.25862944
234	0x3c889e72	0.016677115
235	0x3e8347e5	0.2564079
236	0x3e867ee8	0.26268697
237	0x3b5835bd	0.0032991015
238	0x3dfccbce	0.1234356
239	0x3e6febbd	0.23429771
240	0xbe11a293	-0.14222173
241	0x3deb36fc	0.11485097
242	0x3c448ff6	0.011997214
243	0xbd48241c	-0.04886256
244	0xbd223670	-0.039602697
245	0x3e2ef1ff	0.17084502
246	0xbe118752	-0.14211777
247	0x3d701a60	0.058618903
248	0x3ceb5fa0	0.028732121
249	0xbe82ea39	-0.25569323
250	0xbb73ecc2	-0.0037219976
251	0xbceb93bc	-0.028756969
252	0x3d768b61	0.060191516
253	0xbdd12f79	-0.10214133
254	0x3e474d44	0.19463068
255	0x3da06f6a	0.078337505

conv2.bias f4 [8]
0	0xbd87524c	-0.06607494
1	0xbccce2ed	-0.02501055
2	0xbcf59e21	-0.029982628
3	0xbd8f8aa5	-0.07008866
4	0x3ce1ee61	0.027579488
5	0xbd95526c	-0.07291111
6	0xbda38fe4	-0.07986429
7	0xbd6e3695	-0.058157522

fc1.weight f4 [32, 1152]
0	0x3c4d2f9b	0.012523557
1	0x3d24afdf	0.040206786
2	0x3c8b111d	0.016975934
3	0x3d25919b	0.040422063
4	0x3d3273e5	0.043567557
5	0x3d2ca58a	0.042150058
6	0x3c3205a9	0.010865607
7	0xbd0123b8	-0.031528205
8	0xbc33da81	-0.010977388
9	0xbd283c6b	-0.041073244
10	0xbc4fa505	-0.012673621
11	0xbd0eb7fb	-0.034843426
12	0x3c222ccb	0.009898375
13	0x3bac6b14	0.005261788
14	0x3d94f27d	0.072728135
15	0x3d5fd6e2	0.054648288
16	0x3d7013ee	0.058612756
17	0xbb8ddbb4	-0.004329169
18	0xbd4dd741	-0.05025411
19	0xbd858261	-0.065190084
20	0xbce0295a	-0.027363468
21	0xbb411901	-0.0029464366
22	0xbcc29fa0	-0.023757756
23	0xbca8a8a4	-0.020588227
24	0xbc2b34a6	-0.010449564
25	0x3c7491b4	0.014927316
26	0x3d11f793	0.035636496
27	0x3be1735b	0.0068802065
28	0xbc8efc75	-0.017454365
29	0xbc1676ba	-0.00918358
30	0xbd7f5e00	-0.062345505
31	0xbd544a9b	-0.05182896
32	0xbd666aa9	-0.056254063
33	0xbd7c8157	-0.061646786
34	0x3bd6a2b5	0.006550158
35	0x3d79fd77	0.06103274
36	0xbd9c24a7	-0.076241784
37	0xbca97837	-0.020687206
38	0x3c076bdf	0.008265465
39	0xbacd9e0a	-0.0015687358
40	0xbdaeb6a3	-0.08530929
41	0xbd5b2b5f	-0.05350816
42	0xbd8c3d3a	-0.068476155
43	0xbd807682	-0.062726036
44	0xbda7c451	-0.08191741
45	0xbcc88495	-0.024477283
46	0xbb082043	-0.0020771183
47	0x3d841b98	0.064505756
48	0xbd1d3554	-0.038380936
49	0xbd817565	-0.06321219
50	0xbd727656	-0.059194885
51	0x3c6eb13b	0.014568622
52	0x3afc8b12	0.001926752
53	0xbd21c94c	-0.039498612
54	0xbca2710e	-0.0198293
55	0xbc350108	-0.011047609
56	0x39212adb	0.00015370121
57	0x3cb5d737	0.022197349
58	0x3d97bb08	0.0740872
59	0x3da5955f	0.08085131
60	0xbc2bc9df	-0.010485142
61	0xbd0cfeb7	-0.034422603
62	0x3bd93a1a	0.0066292407
63	0x3d307537	0.043080535
64	0x3cf6d5eb	0.0301313
65	0x3c58cb25	0.013232027
66	0x3cedbdc5	0.029021153
67	0xbcb54cc7	-0.022131337
68	0xbb051efc	-0.0020312658
69	0xbc7a67ef	-0.015283569
70	0x3d40f0ee	0.04710477
71	0x3d9ce5dc	0.0766103
72	0xbbd320fd	-0.0064431415
73	0xbd2032e4	-0.039111033
74	0x3c7f4541	0.015580476
75	0x3c362a86	0.011118537
76	0x3ddc6edd	0.10763333
77	0x3d90b691	0.07066072
78	0x3cb3c3fc	0.021944039
79	0xbd9b3e67	-0.07580262
80	0xbdd2aff0	-0.10287464
81	0xbcbf7829	-0.023372727
82	0xbcf92d0a	-0.030416984
83	0xbd2a6503	-0.04160024
84	0x3d7080f2	0.05871672
85	0x3d8d88e4	0.069108754
86	0x3d9041c6	0.07043795
87	0x3d6d3f5c	0.057921752
88	0x3db44363	0.088019155
89	0x3d8852f1	0.06656445
90	0x3d62fdec	0.05541794
91	0xbdbe1c66	-0.0928276
92	0xbc43b353	-0.01194461
93	0x3d2f1c6f	0.042751726
94	0x3d53bc27	0.051693108
95	0x3d6cb6f2	0.057791658
96	0x3d233967	0.039849665
97	0x3ddfbf8b	0.10925206
98	0x3d69708a	0.05699209
99	0x3cef771f	0.029231606
100	0x3cdfc230	0.027314276
101	0x3d0d22af	0.034456905
102	0x3d1c3c91	0.038143698
103	0x3d1ec2c2	0.038759954
104	0x3d5f498d	0.054513503
105	0x3d81e85b	0.063431464
106	0x3d64fdd8	0.055906147
107	0x3db666e1	0.08906341
108	0x3b729476	0.003701476
109	0x3c9b0953	0.018925345
110	0x3d5e77a0	0.054313302
111	0x3d68971a	0.056784727
112	0x3c83997e	0.016064402
113	0x3d17fc7e	0.03710603
114	0x3d82dab8	0.063893735
115	0x3c92bf56	0.017913502
116	0x3d36e7c5	0.044654626
117	0x3d4dcada	0.050242282
118	0x3cc2182f	0.023693172
119	0x3d79f574	0.061025098
120	0x3c8bce5a	0.01706617
121	0xbbb39814	-0.0054807756
122	0xbcac809a	-0.021057416
123	0x3d0b08e6	0.033944033
124	0x3c2b9db1	0.010474608
125	0xbd1bfef9	-0.038084958
126	0xbd6a3db0	-0.057187736
127	0xbd86a095	-0.06573597
128	0xbbab83b9	-0.0052342084
129	0xbc5e8d0e	-0.013583435
130	0x3ca8a77c	0.020587675
131	0x3b483369	0.003054822
132	0x3cfa58af	0.030559866
133	0x3c27a049	0.010231086
134	0x3ca9accd	0.02071228
135	0x3d04997e	0.032372944
136	0x3cb93e8c	0.022612832
137	0x3bab33f8	0.005224701
138	0xbd2fc5fc	-0.042913422
139	0xbd290494	-0.04126413
140	0xb8ce5bf6	-9.8399745e-05
141	0xbc171dcb	-0.009223412
142	0xba82ddab	-0.0009984275
143	0xbc538630	-0.012910411
144	0xbc49c9dc	-0.012316193
145	0x3caee065	0.021347234
146	0x3c73e42d	0.014885944
147	0x3cebd43f	0.02878773
148	0xbc71ec2d	-0.014765781
149	0xbc6fdd35	-0.014640142
150	0xbd1595b5	-0.036519725
151	0xbcecc116	-0.028900664
152	0xbd8eae10	-0.069667935
153	0xbd886364	-0.06659582
154	0xbda9cb2c	-0.08290705
155	0xbd85ec8c	-0.06539258
156	0xbc0a4d15	-0.008441229
157	0xbbffef34	-0.0078104977
158	0xbc585a7f	-0.01320517
159	0x3d0e6d33	0.03477211
160	0xbb00a35d	-0.0019628622
161	0x3d463176	0.048387013
162	0x3bea3f2a	0.007148643
163	0x3c90f1ac	0.017693363
164	0xbcf40416	-0.029787105
165	0xbca28e0a	-0.01984312
166	0xbcee88da	-0.02911799
167	0xbc434da7	-0.011920369
168	0xbcfddd43	-0.030989295
169	0xbc6edaea	-0.01457856
170	0xbce4d467	-0.027933313
171	0xbc458aff	-0.012057065
172	0xbcfbb778	-0.030727133
173	0xbcf39fcf	-0.029739289
174	0xbd039ed1	-0.03213388
175	0xbd500d22	-0.050793774
176	0xbcbb9ce0	-0.022901952
177	0xbbd8445a	-0.006599945
178	0x3c2a7f9d	0.010406402
179	0x3d37eadf	0.044901725
180	0xbd3d2211	-0.046175066
181	0xbd9af1d3	-0.075656556
182	0xbd589bec	-0.052883074
183	0xbd80f275	-0.06296245
184	0xbcbed54c	-0.023295067
185	0xbc18ff71	-0.009338246
186	0xbc9ade32	-0.01890478
187	0xbd4b026d	-0.04956286
188	0x3c96010d	0.018311048
189	0x3bb82c5e	0.0056205234
190	0x3b0334b2	0.0020020423
191	0x3dacdb14	0.08440223
192	0xbc341365	-0.010990952
193	0xbd65de15	-0.056119997
194	0xbd4360b3	-0.04769964
195	0xbd7334a1	-0.059376363
196	0xbca0599b	-0.019573977
197	0xbcf724b3	-0.030168867
198	0xbc785bfd	-0.01515865
199	0xbcb1fc0b	-0.021726629
200	0xbb651350	-0.0034954138
201	0x3cdb9cd7	0.026808186
202	0x39841e9a	0.00025199802
203	0x3d98ae12	0.07455076
204	0xbbf836b1	-0.007574879
205	0xbd421b05	-0.04738905
206	0xbcdeedf9	-0.027213084
207	0xbaaf7727	-0.0013386951
208	0xbb8c842a	-0.004288216
209	0xba8c48bd	-0.001070283
210	0xbd65cf31	-0.056105796
211	0xbd7e59a5	-0.06209721
212	0xbb04ed58	-0.002028307
213	0xbbe7f87a	-0.0070791813
214	0xbd0c4d27	-0.034253266
215	0xbd4c12e9	-0.04982272
216	0xb983da0c	-0.00025148725
217	0xbb79c5b3	-0.0038112223
218	0x3cdff4ea	0.027338464
219	0x3d65ed17	0.05613431
220	0x3cf03b44	0.029325135
221	0x3d26f3f4	0.040759996
222	0x3aefc31e	0.0018292402
223	0xbd3e8c9f	-0.046520825
224	0xbd6fb5df	-0.058523055
225	0xbd2296d3	-0.03969462
226	0xbd7c1a0b	-0.061548274
227	0xbd109a4b	-0.035303395
228	0x3ac7709b	0.0015216054
229	0x3d7ceee1	0.06175125
230	0x3da72d84	0.08162978
231	0x3d8a535d	0.067541815
232	0x3d263e4a	0.040586747
233	0x3cebc130	0.028778642
234	0x3d719c0b	0.058986705
235	0xbbee87db	-0.007279379
236	0x39ed7f29	0.00045298904
237	0x3ccd9930	0.02509746
238	0x3d13905a	0.036026336
239	0x3d621d98	0.055204004
240	0xbcac977f	-0.021068333
241	0x3d180d95	0.037122328
242	0x3d4c75dc	0.049917087
243	0x3cff3436	0.031152826
244	0x3c351189	0.011051544
245	0x3d358332	0.04431457
246	0x3c5324fd	0.012887237
247	0x3d4ca87d	0.04996537
248	0x3d09cf07	0.033644702
249	0x3d6e3c38	0.058162898
250	0x3ceda62b	0.0290099
251	0x3cc77687	0.02434851
252	0xbd0c84a5	-0.034306187
253	0xbc4f1573	-0.012639391
254	0x3d478c4d	0.048717786
255	0x3d5ae2ad	0.05343883

fc1.bias f4 [32]
0	0x3d0e0531	0.03467292
1	0xbd5426ca	-0.051794805
2	0x3ccde8db	0.025135448
3	0x3db6ac49	0.089195795
4	0x3bb4eb4c	0.0055212136
5	0xbc5f3827	-0.013624228
6	0x3c9fa71d	0.019488866
7	0xbc668acb	-0.014071177
8	0xbb291d05	-0.002580465
9	0x3d16321d	0.036668885
10	0x3b8a647a	0.0042234035
11	0x3c6f8925	0.0146201
12	0x3ccda856	0.025104683
13	0xbcf73525	-0.030176708
14	0x3c89e2c9	0.016831772
15	0x3ba173ec	0.004927149
16	0x3cf95cb0	0.030439705
17	0xbd0d3cda	-0.03448186
18	0x3d2cb752	0.042167015
19	0x3c5789f3	0.013155448
20	0x3d129621	0.035787705
21	0x3d02e504	0.031956688
22	0x3d15a13d	0.036530722
23	0xbc264fc0	-0.01015085
24	0xbd128cc0	-0.03577876
25	0xbc8c3452	-0.017114792
26	0x3d9aae75	0.07552806
27	0x3d523489	0.051319633
28	0xbc38669d	-0.011254934
29	0xbbfeff8b	-0.007781928
30	0xbd8fd952	-0.070238724
31	0x3b7d4ef2	0.0038651791

fc2.weight f4 [10, 32]
0	0x3c8974b8	0.016779289
1	0xbe934829	-0.2876599
2	0xbcd0b301	-0.02547598
3	0x3cd97159	0.026543306
4	0xbd8eb81b	-0.06968709
5	0xbe1c96c6	-0.1529189
6	0xbd31cdfe	-0.04340934
7	0x3e043704	0.12911612
8	0x3d49d449	0.049274717
9	0x3df46d2e	0.11934887
10	0xbde31cdc	-0.11089489
11	0xbc539040	-0.01291281
12	0xbe29b0cf	-0.16571353
13	0xbe024cd3	-0.12724619
14	0xbdcf99fe	-0.101367936
15	0xbdd13b4b	-0.10216387
16	0x3e67fc99	0.22654952
17	0x3e2d9a9e	0.16953513
18	0xbd9efa94	-0.07762638
19	0xbd0b93d7	-0.034076538
20	0xbe52f533	-0.20601349
21	0x3d104255	0.03521951
22	0xbe2ab44f	-0.16670345
23	0x3de5c108	0.112184584
24	0x3dcf4eea	0.101224735
25	0x3d64be1f	0.055845376
26	0x3e0c8c4c	0.13725394
27	0xbdb64e8a	-0.08901699
28	0x3e15c2ff	0.14625166
29	0xbe1fa67d	-0.15590854
30	0xbe851a4f	-0.25996634
31	0x3d909b9b	0.070609294
32	0x3cceffa7	0.025268389
33	0x3b84044e	0.0040288335
34	0x3d189cff	0.0372591
35	0x3e8d6849	0.27618626
36	0x3e10d30e	0.14143011
37	0xbe1d32b3	-0.15351371
38	0x3d366f7e	0.04453992
39	0xbe21db01	-0.158062
40	0xbd5fc7aa	-0.054633774
41	0x3cb62784	0.02223564
42	0x3e2ea830	0.17056346
43	0xbe54f5ea	-0.20796934
44	0x3e35621e	0.1771321
45	0x3e1f4111	0.15552165
46	0xbe53782e	-0.20651314
47	0xbe52190c	-0.20517367
48	0x3d411850	0.047142327
49	0xbe5909c4	-0.21195132
50	0x3e10a9ee	0.14127323
51	0x3e3fa3f3	0.18714885
52	0xbe1f35ac	-0.15547818
53	0x3e203f06	0.15649042
54	0xbe8fedec	-0.28111207
55	0xbe38d81d	-0.1805119
56	0x3dea2ab3	0.114339255
57	0xbdd8f9bd	-0.10594509
58	0x3e3fb565	0.1872154
59	0x3d92088a	0.07130535
60	0x3da69717	0.08134287
61	0xbe740515	-0.23830064
62	0xbe127d40	-0.14305592
63	0xbe770281	-0.24122049
64	0x3e7434fe	0.2384834
65	0xbdf4beb2	-0.11950435
66	0xbe57b4da	-0.21065083
67	0x3d1e12d1	0.038592163
68	0xbe079715	-0.13241227
69	0xbd982c20	-0.07430291
70	0x3e3bab57	0.1832708
71	0xbe1e6ec3	-0.1547194
72	0x3dc04e48	0.09389931
73	0xbcd2d370	-0.025735587
74	0xbde9ce1f	-0.114162676
75	0x3e08bacb	0.13352506
76	0x3dc8d681	0.098065384
77	0xbdf5a3eb	-0.119941555
78	0xbd3a9263	-0.04554976
79	0xbe5e79f3	-0.21726207
80	0xbd85e2bf	-0.06537389
81	0xbdd6dacb	-0.1049095
82	0x3e080927	0.13284741
83	0x3e55b589	0.20870031
84	0xbe1137b8	-0.14181411
85	0xbe33e7a8	-0.17568839
86	0xbddc65ba	-0.1076159
87	0x3e3d8291	0.18506838
88	0x3dee4fcc	0.11636314
89	0x3e275c24	0.16343743
90	0x3b1db1df	0.0024062318
91	0xba815836	-0.0009868208
92	0xbdb48517	-0.088144474
93	0x3e112fef	0.14178441
94	0x3e1d6533	0.15370636
95	0x3d62c166	0.05536022
96	0xbe56e330	-0.20985103
97	0x3e673363	0.22578196
98	0xbe8f801f	-0.28027436
99	0xbd72292c	-0.059121296
100	0xbd063b51	-0.032771412
101	0xbdc0f540	-0.09421778
102	0xbd1cf53e	-0.03831982
103	0x3d84d679	0.0648622
104	0x3d40d5f9	0.04707906
105	0xbd4784cc	-0.04871063
106	0x3e007169	0.12543263
107	0x3e2b3ae8	0.1672169
108	0x3e598912	0.21243694
109	0x3e100cbe	0.14067361
110	0xbe05089f	-0.1299157
111	0xbc8c084a	-0.017093796
112	0xbe8cca52	-0.27498108
113	0x3daaf585	0.083476104
114	0xbbc2bbf5	-0.0059428164
115	0xbe0f1ea2	-0.13976529
116	0xbe571898	-0.21005476
117	0x3ceceb86	0.0289209
118	0xbe0128da	-0.1261324
119	0x3e15b5b6	0.14620098
120	0x3d3080df	0.04309165
121	0x3d40f2dd	0.047106612
122	0x3d60dffc	0.05490111
123	0xbd7224e2	-0.059117205
124	0xbde48019	-0.11157245
125	0xbda0ddd9	-0.07854814
126	0x3e41a54f	0.18910716
127	0x3ddaf515	0.10691277
128	0x3e4d6654	0.20058566
129	0x3d6e5645	0.05818774
130	0x3e1d9a8b	0.15390985
131	0xbc63f1d9	-0.013912641
132	0x3d4fc815	0.050727922
133	0xbdfc79f2	-0.12327947
134	0x3e21458d	0.15749188
135	0xbc3d448d	-0.011551988
136	0xbcb916bd	-0.02259385
137	0xbe2a0bbb	-0.16606037
138	0xbd82b555	-0.063822426
139	0xbe463887	-0.19357501
140	0xbdad7ac4	-0.08470681
141	0xbd2f4177	-0.04278704
142	0xbe6886a1	-0.22707607
143	0x3d9658d3	0.073411606
144	0x3dd49a95	0.10381047
145	0xbda643f2	-0.08118428
146	0xbd2015ad	-0.03908317
147	0x3d594eb8	0.053053588
148	0x3e97e25e	0.29664892
149	0x3e4da66b	0.20083015
150	0x3ded1ced	0.11577783
151	0x3c81d5b0	0.015848964
152	0x3d8ccf8e	0.068755254
153	0x3e05e5f8	0.13076007
154	0x3d8ab4f5	0.06772796
155	0x3dddaab1	0.108235724
156	0x3e26a30b	0.16273133
157	0xbdeb3758	-0.11485165
158	0x3df6c5a2	0.12049414
159	0xbe49405c	-0.19653457
160	0x3e18f207	0.14936076
161	0x3d3a79bc	0.04552625
162	0x3db8476b	0.08997997
163	0xbd4a0dea	-0.049329676
164	0x3c065a62	0.00820026
165	0xbe2d0c2f	-0.16899179
166	0xbe19c0ff	-0.15015028
167	0xbd988f27	-0.07449179
168	0xbd4f1c43	-0.05056406
169	0x3dfe48c2	0.12416221
170	0x3e1e0e40	0.15435123
171	0xbba8b2a2	-0.005148248
172	0x3d87e5a8	0.066356
173	0xbd250b31	-0.040293876
174	0x3d89c67e	0.067273125
175	0x3e59cdd1	0.21269919
176	0xbe6c0231	-0.23047711
177	0xbe0222a4	-0.12708527
178	0xbe7b0d25	-0.24516733
179	0xbe6e4912	-0.23270062
180	0xbd4f4b33	-0.050608825
181	0x3cdb6e70	0.02678606
182	0x3e65e65e	0.2245116
183	0x3dc3ee1c	0.095669
184	0x3d0b7e8a	0.034056224
185	0x3d281a73	0.04104085
186	0x3dd61efc	0.104551286
187	0xbdd37389	-0.10324771
188	0x3e206855	0.156648
189	0xbdc59ea2	-0.096493974
190	0x3d895553	0.067057274
191	0x3dfd07bf	0.12354993
192	0xbe1ca401	-0.15296938
193	0xbe885bff	-0.26632687
194	0x3df7ebaa	0.12105496
195	0x3df4d85c	0.1195533
196	0x3c98c69e	0.018649396
197	0x3db66506	0.089059874
198	0x3da609ca	0.08107336
199	0x3d3db480	0.046314716
200	0xbde25815	-0.110519566
201	0xbd3a8e6a	-0.045545973
202	0xbd2e8fa6	-0.042617463
203	0x3d61eae2	0.055155642
204	0xbe198496	-0.14991984
205	0xbe1243f0	-0.14283729
206	0xbe667e04	-0.22509009
207	0x3e33044b	0.17482106
208	0xbd17c773	-0.037055444
209	0xbd2e4ced	-0.04255383
210	0x3de7c5ba	0.1131701
211	0x3b0bfecf	0.0021361595
212	0xbe3368e1	-0.17520477
213	0xbe433c68	-0.19066012
214	0x3e48360f	0.19551872
215	0xbe925d09	-0.28586605
216	0xbd40e41a	-0.047092535
217	0x3d6734d1	0.056446854
218	0x3e2c75e0	0.1684184
219	0x3e4e16ab	0.20125835
220	0xbc741012	-0.01489641
221	0xbe5ede68	-0.21764529
222	0x3e1a2c39	0.15055932
223	0x3e551159	0.20807399
224	0xbda859d5	-0.08220259
225	0xbe194669	-0.14968266
226	0x3e02f619	0.12789191
227	0x3e333935	0.17502292
228	0x3d66dac1	0.056360964
229	0xbdc7942f	-0.09745061
230	0xbe3a3cb8	-0.18187225
231	0xbb1b8d85	-0.0023735475
232	0x3dfc1c1a	0.123100474
233	0xbe461673	-0.19344501
234	0xbdb98bd9	-0.09059877
235	0x3de1b2ba	0.110204175
236	0xbda385b0	-0.07984483
237	0xbd9fe17a	-0.07806678
238	0x3e282a4b	0.16422383
239	0x3e0f5278	0.13996303
240	0x3d8f0787	0.069838576
241	0x3d898447	0.06714683
242	0x3e25a87c	0.16177553
243	0x3dee295e	0.11628984
244	0xbd8ba17c	-0.0681791
245	0x3ddbe5dc	0.107372016
246	0xbc5674c4	-0.0130893625
247	0xbcbde6b4	-0.023181297
248	0x3d8e469a	0.0694706
249	0xbe83563e	-0.25651735
250	0x3dd8ea82	0.10591604
251	0xbe44d169	-0.19220509
252	0xbd722759	-0.059119556
253	0x3e7cb78a	0.2467939
254	0x3b20b07f	0.0024519262
255	0xbe1e775c	-0.1547522

fc2.bias f4 [10]
0	0x3e1cdf6d	0.15319605
1	0x3e234374	0.159437
2	0xbc847857	-0.016170664
3	0x3d154ec0	0.036452055
4	0xbc82ed37	-0.015982253
5	0xbdf0f5ed	-0.117656566
6	0xbc9575cb	-0.018244645
7	0x3de904b6	0.11377852
8	0x3d9eb54e	0.07749425
9	0xbe0230c2	-0.12713912
